FraudDetection_Deep.onnx (onnx, 214247 bytes, 22 tensors)

fc1.weight f4 [256, 30]
0	0x3c7cdc6d	0.015433413
1	0x3db3a9c9	0.08772618
2	0x3dbc95c7	0.09208255
3	0xbb485bd8	-0.0030572321
4	0x3c7e7f0b	0.015533219
5	0x3e14f915	0.14548142
6	0x3f96fe7c	1.1796412
7	0xbdd2ff4e	-0.10302602
8	0x3e9536bb	0.2914332
9	0xbe65fa54	-0.22458774
10	0xbe45e76a	-0.19326559
11	0xbe506bbb	-0.20353596
12	0xbd4bf7d1	-0.049796883
13	0xbe2873cd	-0.16450424
14	0x3dbf7b5b	0.093497
15	0xbf96f2a3	-1.1792797
16	0x3ed8a71d	0.42314997
17	0xbe0cd299	-0.13752212
18	0x3f2facb1	0.6862288
19	0x3d97b96b	0.074084125
20	0xbe5a69c7	-0.21329413
21	0xbb4b6701	-0.0031036737
22	0x3f0ce8c2	0.5504266
23	0x3d8ba709	0.06818969
24	0xbf8917cf	-1.0710391
25	0x3ea3f60e	0.32023662
26	0x3eaad985	0.3336908
27	0xbe83e365	-0.25759426
28	0x3e0ee77b	0.1395549
29	0x3e641838	0.22274864
30	0xbe04e38c	-0.12977427
31	0x3ea1da9e	0.31612104
32	0x3eb7221e	0.35768217
33	0xbf312eaa	-0.6921183
34	0xbfa5d2e9	-1.295499
35	0x3e58a47e	0.21156499
36	0xbe66c95e	-0.22537753
37	0x3e766326	0.2406126
38	0x3da4329e	0.08017467
39	0xbd44792d	-0.047967125
40	0xbe6d4b08	-0.23173153
41	0xbe00430a	-0.12525573
42	0x3ebe3430	0.3714919
43	0x3ec7229b	0.3889359
44	0x3e0891cb	0.13336866
45	0xbd4db4d5	-0.050221283
46	0xbc6c9f48	-0.0144422725
47	0xbd171553	-0.03688557
48	0x3d636798	0.055518717
49	0xbee76675	-0.45195356
50	0x3e04d956	0.12973532
51	0x3e8c1e8c	0.27367055
52	0xbe661043	-0.22467141
53	0x3e04bb73	0.12962131
54	0xbfa5b174	-1.2944779
55	0xbfaff1b3	-1.3745636
56	0x3da2e7a6	0.0795434
57	0xbdbd188b	-0.09233197
58	0xbea49964	-0.32148278
59	0xbdf52a38	-0.11970943
60	0x3e6fb415	0.2340854
61	0xbd86a44e	-0.065743074
62	0xbcf7143f	-0.030161021
63	0x3bddd37c	0.0067695957
64	0x3eb6a6f4	0.3567425
65	0x3e0d7d58	0.13817346
66	0x3bcbe4e7	0.0062223556
67	0x3d9fa23a	0.07794614
68	0xbd12e387	-0.03586152
69	0xbe6f2a18	-0.23355901
70	0xbe15e0e3	-0.14636569
71	0x3dc7bdd4	0.09753004
72	0xbe1ad59a	-0.15120545
73	0x3e0eef17	0.13958393
74	0xbf40eb30	-0.7535887
75	0xbdbbd3e3	-0.091712736
76	0x3d1c15b9	0.038106654
77	0xbdfd9ff4	-0.12384024
78	0xbd1e4295	-0.038637716
79	0x3d0e7100	0.034775734
80	0xbe9a6057	-0.30151626
81	0xbe5dcb0e	-0.2165949
82	0x3dec6b04	0.11543849
83	0x3ea95172	0.3306995
84	0x3e3a64d6	0.18202528
85	0x3d0c1507	0.03419974
86	0x3c64165f	0.013921349
87	0xbe293c16	-0.16526827
88	0xbc892c50	-0.016744763
89	0x3dd47ff9	0.10375971
90	0x3dedf3ac	0.11618742
91	0x3f20d3a0	0.62822914
92	0x3d9c8a8d	0.07643614
93	0x3d98927c	0.07449815
94	0xbf29e910	-0.6637125
95	0xbe77901c	-0.24176067
96	0xbe92d05a	-0.28674585
97	0x3d616efe	0.05503749
98	0x3e7494bf	0.23884867
99	0xbf2f0b07	-0.683762
100	0x3f2c9c94	0.6742642
101	0x3eeacd6b	0.45859846
102	0x3c0ebc0e	0.008711828
103	0xbeed05ec	-0.4629358
104	0x3f0f8031	0.5605498
105	0x3f88a113	1.0674156
106	0xbe0106dc	-0.12600273
107	0xbeab9799	-0.33514097
108	0xbe461afd	-0.19346233
109	0x3d405f18	0.04696569
110	0xbe950e01	-0.29112247
111	0xbd5f3381	-0.054492477
112	0x3d977663	0.07395627
113	0x3d391e6d	0.045195032
114	0x3cf1811f	0.029480515
115	0xbea9274b	-0.3303779
116	0x3c89e433	0.016832447
117	0x3df1c44c	0.11805019
118	0xbd512287	-0.05105832
119	0xbe6860e2	-0.22693208
120	0xbd964b51	-0.07338584
121	0xbe8ec079	-0.2788122
122	0x3d81abad	0.06331573
123	0xbe3c6dc0	-0.18401241
124	0xbda747c3	-0.08167984
125	0xbde23def	-0.11046969
126	0xbd3b529e	-0.045733087
127	0xbdde87e1	-0.108657606
128	0xbc09fce9	-0.008422115
129	0xbd9f380c	-0.07774362
130	0x3cc6ba14	0.02425865
131	0xbd1bd1e1	-0.038041953
132	0x3e3ac2eb	0.18238418
133	0xbd2eb6e3	-0.042654883
134	0xbe49b3b5	-0.19697459
135	0x3dafa788	0.08576876
136	0xbd770c96	-0.060314737
137	0xbe312b71	-0.17301728
138	0xbdee80c0	-0.11645651
139	0x3dcb6122	0.09930636
140	0xbcfabd89	-0.030607956
141	0x3eb15597	0.34635612
142	0xbdec659f	-0.1154282
143	0x3e64a22c	0.22327489
144	0xbc779a3c	-0.015112456
145	0x3e93d51e	0.28873533
146	0x3c71bfe2	0.014755221
147	0xbdc1976d	-0.0945271
148	0x3e6ee5c5	0.23329838
149	0xbd9526c1	-0.07282782
150	0x3f92e8d7	1.1477307
151	0xbdb6505d	-0.08902047
152	0xbd1599bd	-0.03652357
153	0x3f1e0e68	0.6174073
154	0xbf339f1d	-0.7016466
155	0xbe4eb871	-0.20187546
156	0x3e99054b	0.2988685
157	0xbeca9ec6	-0.3957426
158	0x3e84abc9	0.25912312
159	0x3ef89be0	0.48556423
160	0xbe3b31c2	-0.182807
161	0xbf6ebcc4	-0.93256783
162	0xbf5e7a05	-0.8690494
163	0xbf0f967d	-0.56089
164	0xbaaef7a9	-0.0013348955
165	0xbd47aa7b	-0.048746567
166	0x3de1a3b2	0.110175505
167	0x3e4f60f8	0.20251834
168	0x3e91d270	0.28480864
169	0x3e214820	0.1575017
170	0x3dece747	0.1156755
171	0xbaf3fd63	-0.0018614944
172	0x3e1410a3	0.14459471
173	0x3d29f5ca	0.04149417
174	0xbc818a27	-0.015812946
175	0x3e983dad	0.29734555
176	0x3a895dde	0.0010480245
177	0xbc111802	-0.008855822
178	0x3d63b527	0.055592682
179	0xbda22e0c	-0.07918939
180	0xbd8c75fe	-0.06858443
181	0x3d035e20	0.032072186
182	0x3da473d7	0.08029907
183	0xbd89bdda	-0.067256644
184	0xbdf2281b	-0.11824056
185	0xbc96ed15	-0.018423596
186	0xbe327b0d	-0.17429753
187	0xbec9da6f	-0.39424464
188	0x3d42dd5a	0.04757438
189	0xbcb9ac75	-0.022665242
190	0xbe6fb31d	-0.2340817
191	0x3dd3f121	0.10348726
192	0xbe5b6f67	-0.21429215
193	0x3c57b2eb	0.013165216
194	0xbcd784f5	-0.026308516
195	0xbc88c5a8	-0.016695812
196	0xbe42c9f6	-0.19022354
197	0xbe618237	-0.2202233
198	0xbe1301ec	-0.14356202
199	0x3d357b17	0.04430684
200	0x3e0b2ba4	0.13590866
201	0xbd8d538f	-0.06900703
202	0xbcd179ee	-0.025570836
203	0xbe4a5049	-0.19757189
204	0x3d56b57b	0.052419167
205	0x3dc93735	0.09824983
206	0xbcce56a8	-0.025187805
207	0x3d834713	0.06410041
208	0x3e89c44f	0.26907584
209	0xbe79e67c	-0.24404329
210	0xbf0e8fcd	-0.5568817
211	0x3dadc5e5	0.08485011
212	0xbde8db65	-0.11369971
213	0xbddb408d	-0.107056715
214	0xbefc8f4d	-0.4932808
215	0x3d0b05fe	0.03394126
216	0xbe1bca0e	-0.15213796
217	0x3e19b359	0.15009822
218	0x3d6ca8ad	0.05777805
219	0xbd8f1d96	-0.06988065
220	0x3e636fdb	0.22210638
221	0x3f15eaa3	0.5856115
222	0x3e2c4766	0.16824111
223	0x3ee7973c	0.4523257
224	0xbd819d5f	-0.06328844
225	0xbec459c4	-0.38349736
226	0x3f186d3b	0.5954167
227	0xbe49affb	-0.19696037
228	0xbef3a086	-0.47583407
229	0xbedfb857	-0.43695328
230	0xbe8a73d7	-0.27041504
231	0xbd649b40	-0.05581212
232	0xbf27e2d1	-0.6558047
233	0xbc23beb1	-0.009994195
234	0xbf062bc1	-0.52410513
235	0xbf218e55	-0.63107806
236	0xbe129220	-0.14313555
237	0xbddb766a	-0.10715945
238	0xbdf730de	-0.120698676
239	0xbee5c9ef	-0.44880626
240	0x8006d208	-6.26358e-40
241	0x0005c070	5.28211e-40
242	0x0005a36d	5.17804e-40
243	0x8006d58d	-6.2762e-40
244	0x80069c62	-6.07113e-40
245	0x00068ec6	6.0223e-40
246	0x0005722c	5.00135e-40
247	0x0005952b	5.12689e-40
248	0x00059273	5.11714e-40
249	0x80057d90	-5.04221e-40
250	0x8006ad20	-6.13119e-40
251	0x80062ddc	-5.67464e-40
252	0x80057dbd	-5.04284e-40
253	0x00063da4	5.73125e-40
254	0x0005dbbd	5.38005e-40
255	0x80060d52	-5.55791e-40

fc1.bias f4 [256]
0	0x3644c1c3	2.931906e-06
1	0x360aca68	2.0681418e-06
2	0xb60d28c3	-2.1034364e-06
3	0x372a3ac1	1.0146469e-05
4	0xb4185ee4	-1.4190624e-07
5	0x365e6b8c	3.3143178e-06
6	0x35baf25e	1.3928618e-06
7	0x36787064	3.70203e-06
8	0x00063be8	5.72503e-40
9	0x35843336	9.849671e-07
10	0x33b83009	8.576905e-08
11	0xb660e40d	-3.3511344e-06
12	0xb3251ad5	-3.844146e-08
13	0x34c1a52b	3.6069227e-07
14	0x37b7714a	2.1868054e-05
15	0xb6eab387	-6.994643e-06
16	0x37478889	1.1893114e-05
17	0xb66ffbe6	-3.57604e-06
18	0xb574e407	-9.1228907e-07
19	0xb71c477f	-9.314971e-06
20	0x361970eb	2.2864504e-06
21	0x352bccb2	6.4000335e-07
22	0x343975c5	1.7272312e-07
23	0x3742676c	1.1587381e-05
24	0xb492be03	-2.733287e-07
25	0x35983cdc	1.1342595e-06
26	0xb7952259	-1.7778179e-05
27	0x322ea36a	1.0165289e-08
28	0x37ad4222	2.0654003e-05
29	0xb573b3b6	-9.078607e-07
30	0x35afe9b8	1.3106537e-06
31	0x369a941f	4.606801e-06
32	0xb326b0c5	-3.8810658e-08
33	0xb60a4039	-2.0600985e-06
34	0xb3ced1e1	-9.630799e-08
35	0xb32a95f6	-3.9717598e-08
36	0x3775511c	1.4622023e-05
37	0xb4cb1d90	-3.7833206e-07
38	0x35a01a29	1.1928543e-06
39	0x36323987	2.6557552e-06
40	0xb7549d39	-1.2672791e-05
41	0xb5b066ec	-1.3142976e-06
42	0xb55c2454	-8.200925e-07
43	0xb5ef368e	-1.7822765e-06
44	0xb28da560	-1.6489764e-08
45	0x36f7919d	7.3781252e-06
46	0xb6d223ad	-6.262641e-06
47	0x36bfb540	5.713344e-06
48	0x33ec178c	1.09938895e-07
49	0x8006b20b	-6.14883e-40
50	0x37176c69	9.025543e-06
51	0x34851b93	2.4793243e-07
52	0xb41404a0	-1.3785257e-07
53	0xb7c67f3a	-2.3662684e-05
54	0x35851132	9.914277e-07
55	0xb39ab5a8	-7.204227e-08
56	0x36d68632	6.3933194e-06
57	0xb6b516bd	-5.3968674e-06
58	0xb8114284	-3.463264e-05
59	0x3807d872	3.238809e-05
60	0x35864c9b	1.0006073e-06
61	0x35231f87	6.076811e-07
62	0xb6ae1123	-5.187599e-06
63	0x3545bd7f	7.366397e-07
64	0xb6b3fd0f	-5.3640756e-06
65	0xb5203141	-5.967632e-07
66	0x342642dd	1.548428e-07
67	0x3711a874	8.6818945e-06
68	0x3681d266	3.868993e-06
69	0xb58b2dfc	-1.036969e-06
70	0x3746eb2c	1.1856475e-05
71	0xb38370e0	-6.120695e-08
72	0x37703817	1.4318174e-05
73	0x374d282d	1.2228306e-05
74	0x35297ecf	6.3141937e-07
75	0x361696a6	2.243943e-06
76	0x36b2f6b5	5.333534e-06
77	0xb601b5c2	-1.9328295e-06
78	0xb23357e6	-1.0439157e-08
79	0x34be6be6	3.5468764e-07
80	0x335db7ba	5.162267e-08
81	0x373191dc	1.0583983e-05
82	0xb302da34	-3.046644e-08
83	0xb6a55bb7	-4.92806e-06
84	0x80061916	-5.60012e-40
85	0xb684e7b8	-3.960882e-06
86	0x8005e9cc	-5.43048e-40
87	0x36c76420	5.9423182e-06
88	0xb84176d7	-4.6125464e-05
89	0x3611609c	2.1662918e-06
90	0xb48c1e0a	-2.6098888e-07
91	0x0006c8de	6.2307e-40
92	0xb59bd364	-1.1609923e-06
93	0xb67c868a	-3.7629238e-06
94	0x378428d1	1.5754633e-05
95	0x370bfd07	8.343958e-06
96	0x3678cee8	3.7075315e-06
97	0x00060e2c	5.56097e-40
98	0x3512a768	5.4632847e-07
99	0x34b95516	3.4520843e-07
100	0x36884767	4.061428e-06
101	0x32324dd5	1.0378661e-08
102	0xb5149322	-5.53484e-07
103	0xb2741e4f	-1.4209561e-08
104	0x3431bf74	1.655406e-07
105	0x3685a816	3.9832767e-06
106	0xb668d506	-3.469469e-06
107	0x365cc270	3.2895732e-06
108	0xb7317e7a	-1.057947e-05
109	0xb6a65c90	-4.957961e-06
110	0x3815a461	3.5677458e-05
111	0xb5b129bd	-1.3199675e-06
112	0x371e87a7	9.449118e-06
113	0xb4dc45e3	-4.1029043e-07
114	0x35a904d8	1.2592891e-06
115	0x36a56aa2	4.929797e-06
116	0xb6c96d2b	-6.0029756e-06
117	0x363571fe	2.7037454e-06
118	0xb5bece35	-1.4216117e-06
119	0x8005cf7e	-5.33612e-40
120	0x36f1ed17	7.2099606e-06
121	0xb59424b5	-1.1037542e-06
122	0x36e6d39a	6.879168e-06
123	0xb7f98110	-2.9743213e-05
124	0x369c7b8b	4.6635446e-06
125	0x3784d613	1.5835312e-05
126	0x8005afda	-5.22261e-40
127	0xb5a203b9	-1.2071024e-06
128	0xb4991668	-2.8514773e-07
129	0x372dd265	1.036059e-05
130	0x36adda40	5.1812094e-06
131	0xb5c83b72	-1.4918462e-06
132	0x378441dc	1.5766294e-05
133	0xb570ed2d	-8.9752103e-07
134	0xb6ff5a93	-7.6101364e-06
135	0x364f5dbe	3.0899969e-06
136	0x3635c421	2.7085264e-06
137	0xb60efd6f	-2.1307167e-06
138	0x342aeacc	1.5917902e-07
139	0x30274839	6.085688e-10
140	0xb20175f6	-7.5356095e-09
141	0xb617237f	-2.2521415e-06
142	0x369546d9	4.448794e-06
143	0x369a39b9	4.5962774e-06
144	0xb53b68b8	-6.9815314e-07
145	0x332e4cf8	4.0582535e-08
146	0xb6613e3d	-3.356384e-06
147	0xb618ed94	-2.2788054e-06
148	0xb7ffc3b2	-3.0489497e-05
149	0xb6ffc760	-7.6228025e-06
150	0xb63b12c8	-2.7876104e-06
151	0xb67a5479	-3.7302073e-06
152	0xb663bef7	-3.3936792e-06
153	0x34d94846	4.0471986e-07
154	0x37343e0a	1.0743281e-05
155	0xb51a9b46	-5.7595423e-07
156	0xb64110fd	-2.876913e-06
157	0x36b813a3	5.4859133e-06
158	0x3627979b	2.4973185e-06
159	0x0005a061	5.1671e-40
160	0x36c4bedc	5.863474e-06
161	0xb6625d54	-3.3730948e-06
162	0x8006c3ab	-6.21205e-40
163	0x35df3fd1	1.6633368e-06
164	0x349998e3	2.860971e-07
165	0xb546aff5	-7.40168e-07
166	0xb63a2999	-2.7740373e-06
167	0xb5e066d1	-1.6719224e-06
168	0xb79542c0	-1.7793267e-05
169	0xb69de4df	-4.7056087e-06
170	0xb5b86d14	-1.3740814e-06
171	0x37591713	1.293958e-05
172	0x350269af	4.8582564e-07
173	0x36083702	2.0297598e-06
174	0x36decae2	6.6397342e-06
175	0x3690531b	4.301209e-06
176	0x36d07bef	6.213311e-06
177	0x3751cf06	1.2505572e-05
178	0xb5403717	-7.160574e-07
179	0xb68afca2	-4.142131e-06
180	0xb507ac32	-5.0541996e-07
181	0x34bad49b	3.479989e-07
182	0x35cc2e32	1.5212629e-06
183	0x370852ba	8.125493e-06
184	0x3784ceef	1.5831987e-05
185	0x87d8e0db	-3.2632226e-34
186	0x33d09249	9.712364e-08
187	0x3595f8e4	1.1173802e-06
188	0x33c0a3f6	8.970521e-08
189	0xb71d3fbc	-9.372769e-06
190	0xb69737a9	-4.5066304e-06
191	0xb5a48b1b	-1.2259437e-06
192	0x353a4ea6	6.940485e-07
193	0xb619d465	-2.2922407e-06
194	0x3484ab10	2.471138e-07
195	0xb68c43a6	-4.1802004e-06
196	0x3191bc98	4.241496e-09
197	0x36228f1e	2.4223186e-06
198	0xb519c749	-5.728694e-07
199	0xb657b938	-3.2145308e-06
200	0xb44c33a6	-1.901777e-07
201	0xb5c8b404	-1.4953553e-06
202	0xb8089b3a	-3.2569493e-05
203	0xb35e46c8	-5.1752778e-08
204	0x35aea2f2	1.3011434e-06
205	0xb517c456	-5.653759e-07
206	0x356693db	8.5896835e-07
207	0xb2cf900f	-2.4163482e-08
208	0xb60e193e	-2.1174342e-06
209	0x35ab3c07	1.2757963e-06
210	0xb0a824bd	-1.223405e-09
211	0x36417718	2.8828563e-06
212	0x3548b8ca	7.477471e-07
213	0x13015b9d	1.6327258e-27
214	0xb61bed4f	-2.3234932e-06
215	0x37d9d9fb	2.596992e-05
216	0xb70855de	-8.126224e-06
217	0x35e9bbde	1.7414529e-06
218	0xb69e6c40	-4.721369e-06
219	0x3631e62c	2.6509033e-06
220	0xb52fdd3d	-6.5514524e-07
221	0x00064e3a	5.79075e-40
222	0x34e056a6	4.1786296e-07
223	0x36a8a561	5.026043e-06
224	0xb7a1e4ce	-1.9299241e-05
225	0x358f7d9d	1.0690889e-06
226	0xb6ae47da	-5.1939687e-06
227	0xb5517052	-7.8022015e-07
228	0x0005a365	5.17792e-40
229	0x3720af13	9.577506e-06
230	0x363437a6	2.6854482e-06
231	0x34c82fa8	3.7287577e-07
232	0xb304e494	-3.0941536e-08
233	0x3684cc6a	3.9577035e-06
234	0xb7359db4	-1.0825159e-05
235	0x358c9222	1.0473343e-06
236	0x351f4103	5.932672e-07
237	0x35c338ae	1.4545128e-06
238	0xb793dae4	-1.7625694e-05
239	0xb6ba02fe	-5.5435803e-06
240	0x35c2786b	1.4489173e-06
241	0x368e6541	4.2437173e-06
242	0xb7818807	-1.5441341e-05
243	0xb3cb417a	-9.464834e-08
244	0x80058d74	-5.09921e-40
245	0x34e0d467	4.1877794e-07
246	0xb312c20e	-3.4169766e-08
247	0x3609c596	2.05296e-06
248	0x35728180	9.034047e-07
249	0xb82eabab	-4.164471e-05
250	0xb79370c7	-1.7576282e-05
251	0x372aab96	1.017274e-05
252	0xb6b51e9f	-5.397785e-06
253	0x3523e60c	6.1056994e-07
254	0xb5b291be	-1.330445e-06
255	0xb18cfb0a	-4.103076e-09

bn1.weight f4 [256]
0	0x3f3ea288	0.74466753
1	0x3f61bc49	0.88177925
2	0x3f0bf94f	0.5467729
3	0x3f3bb9ae	0.733302
4	0x3ef048fd	0.46930686
5	0x3f7151c2	0.9426538
6	0x3f175d2d	0.5912655
7	0x3f1aae52	0.6042224
8	0x00067abc	5.95042e-40
9	0x3f5205c5	0.82040054
10	0x3f4035e2	0.7508222
11	0x3f4a3fdf	0.7900371
12	0x3ea60749	0.32427433
13	0x3eff8253	0.49904117
14	0x3f1a1462	0.6018735
15	0x3f2e9691	0.68198496
16	0x3f805d07	1.002839
17	0x3f6f327f	0.93436426
18	0x3e936011	0.2878423
19	0x3f05e724	0.5230582
20	0x3f4371cf	0.76345533
21	0x3f2d2100	0.6762848
22	0x3f1ed693	0.62046164
23	0x3f65efa6	0.898188
24	0x3f2bcdcd	0.671109
25	0x3f07b96c	0.53017306
26	0x3f6199c6	0.88125265
27	0x3ec412e2	0.38295656
28	0x3f43adda	0.7643715
29	0x3f1e9d03	0.6195833
30	0x3f0be0e9	0.5464006
31	0x3f58b19d	0.84646016
32	0x3ea64881	0.3247719
33	0x3f0b557b	0.5442731
34	0x3eb45877	0.35223743
35	0x3f6366b5	0.88828593
36	0x3f82d910	1.0222492
37	0x3f2d902c	0.67798114
38	0x3f3da459	0.740789
39	0x3f65e0b2	0.8979598
40	0x3f89d615	1.0768458
41	0x3f249b8d	0.6429985
42	0x3f9277b5	1.1442782
43	0x3f75812e	0.9590024
44	0x3e8de4e1	0.27713683
45	0x3f062941	0.524067
46	0x3f61f74c	0.8826797
47	0x3f544ac4	0.82926583
48	0x3efb6c89	0.49106243
49	0xbaac2d0f	-0.0013135987
50	0x3f3f0177	0.7461161
51	0x3e961dbb	0.29319558
52	0x3f1a03f5	0.6016229
53	0x3f83af21	1.028782
54	0x3e8ab90e	0.2709431
55	0x3ed6ee61	0.41978744
56	0x3f1463d9	0.57964855
57	0x3f1599c2	0.5843774
58	0x3f74ad7c	0.95577216
59	0x3f506f65	0.81419975
60	0x3eebafb5	0.4603249
61	0x3ef7f727	0.4843075
62	0x3f8646ce	1.0490358
63	0x3eb1a1b9	0.34693697
64	0x3f583d9e	0.8446902
65	0x3f009b7e	0.5023726
66	0x3f301432	0.68780816
67	0x3f29a71c	0.66270614
68	0x3f13990a	0.57655394
69	0x3f183b51	0.5946551
70	0x3ee816f6	0.45330018
71	0x3eea60af	0.4577689
72	0x3f52c997	0.8233885
73	0x3f4b61e4	0.79446244
74	0x3ef91e61	0.4865599
75	0x3f2fd7cb	0.6868865
76	0x3f71ae6c	0.9440677
77	0x3f0756c7	0.52866787
78	0x3e843645	0.25822654
79	0x3ee2aa48	0.4427054
80	0x3f782751	0.9693499
81	0x3f8783a8	1.0587053
82	0x3ef18205	0.4716951
83	0x3f36daf0	0.7142782
84	0x80055bfb	-4.92174e-40
85	0x3f1319de	0.57461345
86	0x80055fec	-4.93588e-40
87	0x3f8f0ca7	1.1175736
88	0x3f848583	1.0353245
89	0x3ed134f4	0.40860713
90	0x3f667ca4	0.90033937
91	0x310368e5	1.9122635e-09
92	0x3f794d3a	0.97383463
93	0x3f26d2d4	0.6516545
94	0x3f233342	0.6375009
95	0x3f4020e2	0.75050175
96	0x3f1dae85	0.6159442
97	0x0005cae7	5.31965e-40
98	0x3f2e68a3	0.6812841
99	0x3ea1dc53	0.31613407
100	0x3f10bab8	0.5653491
101	0x3f14eada	0.58170855
102	0x3e9d7ab3	0.30757675
103	0x3ea0832b	0.31350073
104	0x3f0d7a1e	0.5526446
105	0x3efcde6f	0.49388453
106	0x3f21ccbe	0.63203037
107	0x3f5b50d1	0.8567019
108	0x3f2693b9	0.65069157
109	0x3f6f09f7	0.9337458
110	0x3f7993db	0.97491235
111	0x3f7473b8	0.9548907
112	0x3f54ab5c	0.83073974
113	0x3f08f9f6	0.5350641
114	0x3f07f949	0.53114754
115	0x3f6702aa	0.9023844
116	0x3f086aa8	0.53287745
117	0x3f434d22	0.7628957
118	0x3f23c92c	0.6397884
119	0xb9ce41fb	-0.0003934054
120	0x3f2f63a3	0.6851141
121	0x3eed84cb	0.46390375
122	0x3f013a7a	0.50479853
123	0x3efc4c4c	0.4927696
124	0x3f210139	0.6289249
125	0x3f30e10b	0.6909339
126	0x30d890f9	1.5757272e-09
127	0x3f5b6a9f	0.85709566
128	0x3f3f2a0e	0.74673545
129	0x3f7d5b3f	0.98967355
130	0x3f59b0c5	0.85035354
131	0x3f37c059	0.71777874
132	0x3f490c90	0.78534794
133	0x3f2c9300	0.67411804
134	0x3f52b391	0.82305247
135	0x3f804728	1.0021715
136	0x3f811d18	1.0087004
137	0x3f40b05a	0.7526909
138	0x3f0efee4	0.5585768
139	0x3dcc97e2	0.09989907
140	0x3ec99ce9	0.39377525
141	0x3f080adf	0.5314159
142	0x3f6224dc	0.8833749
143	0x3eb37fbf	0.350584
144	0x3f49b35f	0.78789324
145	0x3e891a88	0.26778054
146	0x3dcb1717	0.099165134
147	0x3f65dfee	0.89794815
148	0x3f49895a	0.78725207
149	0x3f3dce16	0.7414259
150	0x3f0c3bbb	0.5477864
151	0x3f488898	0.78333426
152	0x3f1edaf6	0.6205286
153	0x3f5451be	0.8293723
154	0x3f206bde	0.6266459
155	0x3f3d018e	0.738305
156	0x3f7f76ae	0.99790466
157	0x3f88c69d	1.0685612
158	0x3f398d5a	0.7248131
159	0x8006b035	-6.14224e-40
160	0x3f39d465	0.72589713
161	0x3f12c5df	0.5733318
162	0x00060a51	5.54714e-40
163	0x3ebcac29	0.36850098
164	0x3edc2552	0.42997223
165	0x3f316357	0.69292206
166	0x3f13f3ec	0.5779407
167	0x3f1031bd	0.56325895
168	0x3f694b48	0.91130495
169	0x3f15b792	0.5848323
170	0x3f5e7e7c	0.8691175
171	0x3f34e3cb	0.70660084
172	0x3f8ae5af	1.0851344
173	0x3f934afa	1.1507256
174	0x3f89bc26	1.0760543
175	0x3f2f4aea	0.68473685
176	0x3f582e70	0.8444586
177	0x3f795a7d	0.974037
178	0x3eccdb68	0.40011144
179	0x3f30f262	0.69119847
180	0x3eba45f0	0.36381483
181	0x3f2c5a75	0.67325526
182	0x3f0891eb	0.53347653
183	0x3ef04ca6	0.46933478
184	0x3f8b3cb9	1.0877906
185	0x9d90fa3c	-3.837522e-21
186	0x3f0dd574	0.5540383
187	0x3f87568c	1.0573287
188	0x3ed5fe63	0.41795644
189	0x3f0d6b0e	0.5524148
190	0x3f747427	0.95489734
191	0x3f721729	0.9456659
192	0x3edf964c	0.43669355
193	0x3f5f32bd	0.87186795
194	0x3f11ee1b	0.57003945
195	0x3f1c7044	0.61108804
196	0x3f08d218	0.5344558
197	0x3f27cb78	0.65544844
198	0x3f2fe6fb	0.68711823
199	0x3ec4af47	0.38414976
200	0x3eec0971	0.46100953
201	0x3ee7ff71	0.45312074
202	0x3f6342eb	0.88773984
203	0x3ed94364	0.42434227
204	0x3f7f3ac4	0.99699044
205	0x3f4e4ed9	0.8058906
206	0x3f67f310	0.9060526
207	0x3e98c5ac	0.29838312
208	0x3f7c462d	0.9854458
209	0x3ee617ad	0.44939938
210	0x3dbdc426	0.09265928
211	0x3f6e1449	0.929997
212	0x3f327516	0.6970991
213	0x3cdf4b55	0.0272576
214	0x3f8426b0	1.0324306
215	0x3f3cf2f9	0.73808247
216	0x3f5195d1	0.81869227
217	0x3ea2f79e	0.31829542
218	0x3f2f8c29	0.6857324
219	0x3f4f3473	0.80939406
220	0x3f0e758c	0.5564811
221	0x00055d53	4.92656e-40
222	0x3ec84f46	0.3912298
223	0x3f636dc8	0.8883939
224	0x3f56d763	0.83922404
225	0x3f2d4e16	0.67697275
226	0x3f3bb762	0.73326695
227	0x3eada2ad	0.33913174
228	0x3a12e7a3	0.00056039746
229	0x3f851bc7	1.0399102
230	0x3f38317a	0.71950495
231	0x3f2f9c86	0.6859821
232	0x3ea07c69	0.31344917
233	0x3f1da461	0.6157895
234	0x3f6af749	0.9178358
235	0x3e856df3	0.26060447
236	0x3eb77956	0.3583476
237	0x3f55215f	0.83254045
238	0x3f9c628d	1.2217575
239	0x3f0bc2f3	0.54594344
240	0x3f47f602	0.78109753
241	0x3f356f4e	0.7087296
242	0x3f11d574	0.5696633
243	0x3f325833	0.6966583
244	0x00055cb1	4.92429e-40
245	0x3efc70b8	0.49304748
246	0x3e584b46	0.21122465
247	0x3f28176a	0.6566073
248	0x3edfba45	0.436968
249	0x3f4bf831	0.79675585
250	0x3f82d090	1.0219898
251	0x3f848a1b	1.0354646
252	0x3f7d1ded	0.9887379
253	0x3eb11e27	0.34593317
254	0x3f65af23	0.8972036
255	0x3e5dea58	0.21671426

bn1.bias f4 [256]
0	0xbf249a6e	-0.6429814
1	0xbf0ae146	-0.5424999
2	0xbf5cfbb9	-0.863216
3	0xbebfa89b	-0.37433323
4	0xbf3bc7d5	-0.73351794
5	0xbf190658	-0.59775305
6	0xbf516422	-0.81793416
7	0xbece0550	-0.40238428
8	0x80059bc9	-5.15063e-40
9	0xbf2701b9	-0.65237004
10	0xbf258f5b	-0.6467187
11	0xbe8d4cb5	-0.27597585
12	0xbf270f5c	-0.6525781
13	0xbf4918f7	-0.7855372
14	0xbe939b50	-0.28829432
15	0xbe850bcf	-0.25985572
16	0xbf39c8df	-0.7257213
17	0xbf28c6ab	-0.65928143
18	0x3c37d8bb	0.011221106
19	0xbe9f868a	-0.31157333
20	0xbf13db5f	-0.5775661
21	0xbf134686	-0.57529485
22	0xbe910cfd	-0.28330222
23	0xbf360e53	-0.7111561
24	0xbe1a31e5	-0.15058096
25	0xbee3bc7d	-0.44479743
26	0xbed3c797	-0.41363212
27	0xbecc8f24	-0.39952958
28	0xbee78908	-0.45221734
29	0xbe9d3fe0	-0.30712795
30	0xbe371bd3	-0.17881708
31	0xbec89459	-0.3917568
32	0xbf0bc20c	-0.5459297
33	0xbea657cc	-0.3248886
34	0xbf320336	-0.6953615
35	0xbf3aca2e	-0.7296475
36	0xbf269ef6	-0.65086305
37	0xbe2735cf	-0.1632912
38	0xbf19d572	-0.60091317
39	0xbf3535a2	-0.7078496
40	0xbf3a9689	-0.7288595
41	0xbf228713	-0.63487357
42	0xbf62e976	-0.88637483
43	0xbf338788	-0.7012868
44	0xbecb1b64	-0.39669335
45	0xbebe4cb4	-0.37167895
46	0xbf18df2a	-0.5971552
47	0xbf5c9fd3	-0.8618137
48	0xbf0f0295	-0.55863315
49	0xbd1a8429	-0.037723694
50	0xbee99e68	-0.45628667
51	0xbc61b42d	-0.013775867
52	0xbef2b5d4	-0.4740435
53	0xbf42a6e5	-0.7603591
54	0xbde6cde0	-0.11269736
55	0xbf3d7639	-0.7400852
56	0xbe642a6d	-0.22281809
57	0xbee1bc3b	-0.4408892
58	0xbf416e2a	-0.7555872
59	0xbef2277d	-0.47295752
60	0xbf442fb7	-0.7663531
61	0xbe66d6eb	-0.22542922
62	0xbf06ed91	-0.5270625
63	0xbf0efa7e	-0.5585097
64	0xbf0da607	-0.5533146
65	0xbe65b63c	-0.22432798
66	0xbe98f346	-0.29873103
67	0xbeb55afe	-0.35420984
68	0xbef9548a	-0.4869731
69	0xbe4863af	-0.19569276
70	0xbe60d86c	-0.21957558
71	0xbf494919	-0.78627163
72	0xbf01156a	-0.504233
73	0xbf2a8e6f	-0.66623586
74	0xbe854091	-0.26025823
75	0xbf40c65c	-0.7530267
76	0xbf02b665	-0.5105956
77	0xbefb4056	-0.49072522
78	0xbf010b7a	-0.50408137
79	0xbf3d1dff	-0.73873895
80	0xbf104bc3	-0.56365603
81	0xbf2e2795	-0.6802915
82	0xbf2b8690	-0.670022
83	0xbef52f38	-0.47887588
84	0x80055ef9	-4.93247e-40
85	0xbe018acd	-0.12650605
86	0x80056139	-4.94054e-40
87	0xbf3c3378	-0.73516035
88	0xbf4acc61	-0.7921811
89	0xbe861d0f	-0.26194045
90	0xbef501fa	-0.4785307
91	0xb2e11b4a	-2.6205857e-08
92	0xbf4da8c7	-0.8033566
93	0xbedf573c	-0.43621242
94	0xbed4c6f5	-0.41558042
95	0xbed19359	-0.4093273
96	0xbeac99c0	-0.33711052
97	0xbb89f8db	-0.004210574
98	0xbeec15d5	-0.46110407
99	0xbf14ed9f	-0.5817508
100	0xbe77ff52	-0.2421849
101	0xbe931b08	-0.2873156
102	0xbe8abe7d	-0.27098456
103	0xbf086a2b	-0.53287
104	0xbdaceb3a	-0.084433034
105	0xbe8cc6b7	-0.27495357
106	0xbeb5f44f	-0.35537955
107	0xbf1d8e0f	-0.6154489
108	0xbea07e1c	-0.31346214
109	0xbf272575	-0.6529153
110	0xbf1b51fd	-0.6067198
111	0xbf35fc85	-0.7108844
112	0xbee87122	-0.45398813
113	0xbf3526fc	-0.7076261
114	0xbf290cf0	-0.66035366
115	0xbf585089	-0.84497887
116	0xbea370c8	-0.31921983
117	0xbdbd7b00	-0.09251976
118	0xbf04c869	-0.518683
119	0xba282c6f	-0.00064153125
120	0xbf149365	-0.58037406
121	0xbee34043	-0.44384965
122	0xbf0365f4	-0.51327443
123	0xbe90126e	-0.2813906
124	0xbead7589	-0.33878735
125	0xbe9bd79b	-0.3043793
126	0xb1749987	-3.5593943e-09
127	0xbf1179cf	-0.5682649
128	0xbefe4b65	-0.49666896
129	0xbf1674ca	-0.58771956
130	0xbf1de839	-0.6168247
131	0xbf0da95e	-0.5533656
132	0xbf09e280	-0.53861237
133	0xbf21efaa	-0.63256323
134	0xbf23cce2	-0.639845
135	0xbf304fa1	-0.68871504
136	0xbee36dbf	-0.44419667
137	0xbf0f276c	-0.5591953
138	0xbf3fef37	-0.7497439
139	0xbea17c2a	-0.31540042
140	0xbeca3689	-0.39494732
141	0xbf0d7fa2	-0.5527288
142	0xbf0dfd2b	-0.5546443
143	0xbd8709da	-0.06593676
144	0xbedcc1a5	-0.4311649
145	0xbedd732a	-0.43251926
146	0x3cfdae1a	0.030966807
147	0xbf561d93	-0.83638877
148	0xbea45dbb	-0.3210276
149	0xbe9b3975	-0.30317274
150	0xbe9341ef	-0.2876124
151	0xbf09b5d6	-0.53793085
152	0xbf2779fe	-0.6542052
153	0xbeaea4ad	-0.34110013
154	0xbe99ed5a	-0.30063897
155	0xbdfdb6b2	-0.12388362
156	0xbf5ba993	-0.85805625
157	0xbf24eb99	-0.64421993
158	0xbef77a57	-0.48335525
159	0xb397aa62	-7.062478e-08
160	0xbe941e79	-0.289295
161	0xbf14ee01	-0.58175665
162	0x800560be	-4.93882e-40
163	0xbec12d93	-0.37730083
164	0xbf433ef9	-0.76267964
165	0xbe04c1cd	-0.12964554
166	0xbe400c70	-0.18754745
167	0xbeb75a21	-0.3581095
168	0xbf0b8b00	-0.5450897
169	0xbf071b1e	-0.5277575
170	0xbf338d94	-0.70137906
171	0xbec46420	-0.3835764
172	0xbf2733d3	-0.6531345
173	0xbf22ae59	-0.63547283
174	0xbf0a1bbe	-0.5394858
175	0xbeba54ff	-0.36392972
176	0xbe9cbdb9	-0.30613497
177	0xbf02facf	-0.51163954
178	0xbf0c1260	-0.5471554
179	0xbee94913	-0.45563564
180	0xbf1738d8	-0.5907111
181	0xbece80eb	-0.40332732
182	0xbecf3eba	-0.40477544
183	0xbe5ec5f5	-0.21755202
184	0xbf673993	-0.90322226
185	0xbcdf0428	-0.027223662
186	0xbf0efbc2	-0.558529
187	0xbf4b63eb	-0.7944934
188	0xbf15ab39	-0.5846439
189	0xbf131305	-0.57450897
190	0xbf33d099	-0.7024017
191	0xbf3b318c	-0.7312248
192	0xbf182830	-0.5943632
193	0xbec8391b	-0.39106068
194	0xbd7fd520	-0.06245911
195	0xbf047d05	-0.51753265
196	0xbf29e78f	-0.66368955
197	0xbe57652d	-0.21034689
198	0xbedec448	-0.43509126
199	0xbe7e6403	-0.24842839
200	0xbdecd7fb	-0.115646325
201	0xbead738d	-0.3387722
202	0xbefc2869	-0.4924958
203	0xbf1eef22	-0.6208364
204	0xbf351c0a	-0.7074591
205	0xbea941bf	-0.33057973
206	0xbf049b68	-0.5179963
207	0xbeee3ec4	-0.4653226
208	0xbf28656c	-0.6577976
209	0xbf1d72fc	-0.6150358
210	0xbe9b883e	-0.30377382
211	0xbed8fde9	-0.42381218
212	0xbecb5644	-0.39714253
213	0xbe20eabc	-0.15714544
214	0xbf59b021	-0.85034376
215	0xbed280ea	-0.4111398
216	0xbeb65a8e	-0.35615963
217	0xbdab112b	-0.08352884
218	0xbef981a1	-0.48731712
219	0xbf1a0b79	-0.60173756
220	0xbe8e2771	-0.27764466
221	0x80056046	-4.93714e-40
222	0xbeb32945	-0.34992424
223	0xbf1bca64	-0.608557
224	0xbf0e8eef	-0.5568685
225	0xbe4f3d69	-0.2023827
226	0xbee186e7	-0.44048235
227	0xbf1086e1	-0.5645581
228	0xbbadf579	-0.0053088036
229	0xbf31da4d	-0.69473726
230	0xbec58d60	-0.38584423
231	0xbe6099dc	-0.21933693
232	0xbe84ef96	-0.2596404
233	0xbee3c907	-0.4448931
234	0xbf15f768	-0.58580637
235	0xbeadc81b	-0.3394173
236	0xbeaa8fed	-0.33312932
237	0xbf1b814c	-0.60744166
238	0xbf50acb8	-0.8151355
239	0xbe5fa5d1	-0.21840598
240	0xbef7a83a	-0.48370534
241	0xbecb34e0	-0.39688778
242	0xbe9b1a4f	-0.3029351
243	0xbefc1a2b	-0.49238715
244	0x80056165	-4.94116e-40
245	0xbde9a960	-0.11409259
246	0x3cb7dc46	0.022443902
247	0xbe84c715	-0.25933138
248	0xbde8996a	-0.113573864
249	0xbeda7b91	-0.426724
250	0xbf3148b5	-0.6925157
251	0xbf319688	-0.6937032
252	0xbf24c3ef	-0.6436147
253	0xbf14e338	-0.5815921
254	0xbf116aba	-0.56803477
255	0xbe456009	-0.19274916

bn1.running_mean f4 [256]
0	0xbf4ff684	-0.8123553
1	0xbfd3e1b5	-1.6553255
2	0x409aaf60	4.833908
3	0xc046ef27	-3.1083467
4	0x4035e9a9	2.8423865
5	0xbf2d10dd	-0.67603856
6	0x4098c3b2	4.7738886
7	0xc00751b3	-2.1143615
8	0x80210ee9	-3.03592e-39
9	0xbfc2cf62	-1.5219538
10	0xbf931d3f	-1.14933
11	0xc038704a	-2.8818536
12	0x3fd9da19	1.7019683
13	0x403f25e5	2.986688
14	0xbf020f3f	-0.50804514
15	0xc0ab128d	-5.3460145
16	0xbfcd1762	-1.6022761
17	0xc0026875	-2.0376256
18	0x40b3b802	5.616212
19	0xbff97685	-1.9489294
20	0xbf0d4241	-0.5517922
21	0xbfdaa932	-1.7082884
22	0xbf9385bc	-1.1525187
23	0xbfe02d25	-1.7513777
24	0xc120fc20	-10.061554
25	0xbf366784	-0.712517
26	0xc019ddce	-2.404163
27	0x3fc97eda	1.5741837
28	0xbf584a19	-0.84488064
29	0xbf225729	-0.63414246
30	0xbdc4a723	-0.09602191
31	0xc1058fa9	-8.347573
32	0xbf396e3a	-0.7243382
33	0xbf60b952	-0.87782776
34	0x40721eb7	3.7831247
35	0xbf4a3f98	-0.79003286
36	0xbf4249c6	-0.7589382
37	0xc119557d	-9.583371
38	0xbffc7481	-1.9723054
39	0xbee7ecf6	-0.45297974
40	0xc016c2b8	-2.3556347
41	0x3f808a4f	1.0042208
42	0xc076be23	-3.855355
43	0xbfa02732	-1.2511961
44	0xc03acc77	-2.9187295
45	0x3dfe01dc	0.124026984
46	0xbd15555d	-0.036458362
47	0xbf602947	-0.87562984
48	0xc01106ed	-2.2660477
49	0x3a2ff515	0.000671224
50	0xc032a21b	-2.7911441
51	0x401689ae	2.3521533
52	0xbf80710b	-1.0034498
53	0xbfb150d3	-1.385279
54	0xbeb8c322	-0.36086375
55	0x40c4ca4f	6.149696
56	0xc010b4e5	-2.261041
57	0xbed01a34	-0.4064499
58	0xbf0f8ff7	-0.5607905
59	0xbfa515b1	-1.2897245
60	0xbf646986	-0.89223516
61	0xbe3b6061	-0.18298484
62	0xc03316ca	-2.798266
63	0x40142d2c	2.315257
64	0xbfe3cf21	-1.7797586
65	0x3fd69955	1.6765543
66	0xc0072b12	-2.1120038
67	0xc0668fb7	-3.6025217
68	0xbfa92660	-1.3214836
69	0xc108b11c	-8.54324
70	0xbf8d54d3	-1.1041511
71	0x401387cb	2.3051631
72	0xbfd409f0	-1.6565533
73	0xbf8e31ab	-1.1108907
74	0x3f6cde72	0.92526925
75	0xbe94ff58	-0.29101062
76	0xc093a8fe	-4.614379
77	0xbfe7a214	-1.8096337
78	0x4037e2b7	2.8732126
79	0x409556f9	4.666867
80	0xc04905d1	-3.14098
81	0xc0ea82ac	-7.328451
82	0x4080c821	4.02443
83	0xc02901ad	-2.6407273
84	0x0065998e	9.33047e-39
85	0xc0c5cb01	-6.1810308
86	0x005fe6f5	8.807224e-39
87	0xc0ee83bf	-7.4535823
88	0xbfafb18e	-1.372606
89	0x3f0e7381	0.55644995
90	0xbf97a890	-1.1848316
91	0x8087ce08	-1.2471702e-38
92	0xc005fe08	-2.0936298
93	0xbdbf79fd	-0.09349439
94	0xbff8004c	-1.9375091
95	0xbfcce349	-1.6006862
96	0xbff367df	-1.9016074
97	0x8019b158	-2.359506e-39
98	0xc0142aff	-2.3151243
99	0x4069fe7c	3.6561575
100	0x3f2e584c	0.6810348
101	0xbf4f3dc3	-0.80953616
102	0x3ff2e592	1.8976309
103	0x3fd660c2	1.6748278
104	0xc0ff68e8	-7.981556
105	0x3da66263	0.081242345
106	0xbfcb86fe	-1.5900571
107	0xc004943a	-2.071547
108	0xc005e418	-2.0920467
109	0xbfe5f94f	-1.7966708
110	0xbf7c48a1	-0.9854832
111	0xc0d5565f	-6.6667933
112	0xc04de6f4	-3.2172213
113	0x3f92dbcc	1.1473327
114	0x40481a1e	3.126594
115	0xbfd45626	-1.658879
116	0xbfa5c14c	-1.2949615
117	0xc11a0eb4	-9.62859
118	0xbe8eb978	-0.27875876
119	0xaaa96ecd	-3.0097314e-13
120	0xbff9635f	-1.9483451
121	0xbfceffaf	-1.6171778
122	0xbfc057a4	-1.5026746
123	0xbe2965b6	-0.16542706
124	0xbfb7f9c5	-1.4373099
125	0xc0c13962	-6.0382547
126	0x8dab5f1b	-1.0561584e-30
127	0xbfb844aa	-1.4395955
128	0xc0481aa8	-3.126627
129	0xbf9cc44d	-1.2247406
130	0xbfc3fb9b	-1.5311159
131	0xbfdd0c02	-1.726929
132	0xbf008655	-0.50204974
133	0x3f368dd6	0.71310174
134	0xbfa43b25	-1.283055
135	0xbf58b6f9	-0.84654194
136	0xc10cd4bd	-8.801938
137	0xc00cef9e	-2.202125
138	0xbfcc3629	-1.5954028
139	0xbdebf854	-0.11521974
140	0x406f02fb	3.734557
141	0xc02d2c0b	-2.7058132
142	0xbfb888f7	-1.4416798
143	0x3f82d882	1.0222323
144	0xc0247744	-2.5697794
145	0x400d365b	2.2064426
146	0xc02f7bfa	-2.741942
147	0xbf5a1dbe	-0.8520163
148	0xc03b93d1	-2.930897
149	0xc00cdc61	-2.2009509
150	0xbf775138	-0.96608305
151	0xbebf1451	-0.37320188
152	0xbf4eb5e0	-0.8074627
153	0xbfb6aa72	-1.4270766
154	0xbfd06cf0	-1.6283245
155	0xc10854f7	-8.520743
156	0xc0012c18	-2.0183163
157	0xbfbba7c1	-1.466057
158	0xbfd7224d	-1.6807343
159	0x00617b79	8.952337e-39
160	0xc0482091	-3.1269877
161	0x3ec40b5b	0.38289914
162	0x0013c920	1.817024e-39
163	0x3fd7d736	1.6862552
164	0x409c6b03	4.888063
165	0xc11a3cde	-9.63986
166	0xbe8b42a5	-0.27199283
167	0xbd215858	-0.03939089
168	0xbfdb02ee	-1.7110269
169	0xbee139fe	-0.43989557
170	0xbf77fb84	-0.9686816
171	0xbffceda5	-1.9760023
172	0xc0e1130a	-7.033574
173	0xc02c8e4c	-2.696185
174	0xc008bf77	-2.136686
175	0xbfd74347	-1.6817406
176	0xc1315b8a	-11.084848
177	0xc0290eaa	-2.64152
178	0xbed77a44	-0.4208547
179	0xbf602986	-0.8756336
180	0x40264ff2	2.5986295
181	0xbf9af643	-1.2106403
182	0xc02f7813	-2.7417037
183	0xbfca103b	-1.5786203
184	0xc009375f	-2.1440046
185	0x9cd73c8b	-1.4243157e-21
186	0x40071ea1	2.1112444
187	0xbef98655	-0.487353
188	0x408a2ab6	4.3177137
189	0xbf73dd7a	-0.9525982
190	0xbffad88b	-1.9597334
191	0xbf3a8f57	-0.7287497
192	0x3fe6e26f	1.8037852
193	0xc0aca697	-5.3953357
194	0xc10dfa77	-8.873649
195	0xbf1fcbd2	-0.6242038
196	0xc03fb06a	-2.9951425
197	0xc1188ba0	-9.534088
198	0xc0429fcd	-3.0410035
199	0xbfd97851	-1.6989843
200	0xc0fc256e	-7.879569
201	0xbfc2d8e2	-1.5222437
202	0xc037321f	-2.8624341
203	0x3f93d8d3	1.1550545
204	0xbfb7ba3e	-1.4353712
205	0xbfb6330a	-1.4234326
206	0xc10d5613	-8.833514
207	0xbf7d2562	-0.98885167
208	0xc073c8f9	-3.8091414
209	0x3f43bfe4	0.76464677
210	0x3f830370	1.0235424
211	0xc11b30af	-9.699386
212	0xbf8031d2	-1.0015204
213	0x3df31da3	0.11870887
214	0xbef4c851	-0.4780908
215	0xbfb45219	-1.4087554
216	0xc00f966e	-2.2435565
217	0xc1008d9d	-8.034574
218	0xbfffeb37	-1.9993657
219	0xbf0ba012	-0.5454112
220	0xbf978a86	-1.1839149
221	0x000abd28	9.86211e-40
222	0xbf4728b3	-0.7779648
223	0xbf9ad421	-1.2095987
224	0xc003c5f6	-2.0589576
225	0xc11847b3	-9.517505
226	0xc0daa263	-6.8323226
227	0x3eaa66c9	0.33281544
228	0x3f04de65	0.5190185
229	0xbfad13df	-1.3521689
230	0xbf8a3ba8	-1.0799456
231	0xc0cd3672	-6.412896
232	0x3fc724a7	1.555806
233	0xbe89d5aa	-0.26920825
234	0xbfbe2448	-1.4854822
235	0x401e8d22	2.477364
236	0x4000039e	2.0002208
237	0xc0991f69	-4.7850842
238	0xc0c941db	-6.289289
239	0xc0263b0b	-2.5973537
240	0xc0f2f505	-7.5924096
241	0xc05bfee9	-3.4374335
242	0xc0052780	-2.080536
243	0xbfa22426	-1.2667282
244	0x80982216	-1.3971223e-38
245	0xc0bb0b5b	-5.845136
246	0x407ca7f6	3.9477515
247	0xc120592a	-10.021769
248	0xc111014f	-9.0628195
249	0xbfcc1e72	-1.5946791
250	0xbf8e4cb7	-1.1117162
251	0xc0c891a2	-6.2677774
252	0xbf431f9f	-0.76220125
253	0x40943b5b	4.6322455
254	0xbf65d55f	-0.89778703
255	0xbdbdf655	-0.092755

bn1.running_var f4 [256]
0	0x414b7493	12.7159605
1	0x413acbb4	11.674732
2	0x422a900f	42.640682
3	0x41ddfc46	27.74818
4	0x41e70d23	28.881414
5	0x40dd188c	6.9092464
6	0x426b9acd	58.901173
7	0x41422168	12.133156
8	0x00000004	6e-45
9	0x41b7f9d2	22.996983
10	0x410278f8	8.154533
11	0x4286bf3e	67.37352
12	0x4195732c	18.681236
13	0x41ca33c4	25.275276
14	0x4109d139	8.61358
15	0x424bc518	50.942474
16	0x40f27af7	7.5775104
17	0x4132b0d2	11.168169
18	0x4247b66d	49.92815
19	0x41720905	15.127202
20	0x40ba68ae	5.8252783
21	0x41aadd6b	21.358114
22	0x41968c66	18.818554
23	0x413b9697	11.724265
24	0x43441008	196.06262
25	0x40fa8433	7.8286376
26	0x41b5b9d5	22.715738
27	0x413b2f2c	11.699017
28	0x40d9e9c1	6.8097844
29	0x40bb1745	5.8465905
30	0x415269fe	13.150877
31	0x430a6b38	138.41882
32	0x414afbd7	12.686484
33	0x41854562	16.658878
34	0x4201bbc8	32.43338
35	0x41559bc3	13.350528
36	0x40c6f8f3	6.2178893
37	0x4336a9d5	182.6634
38	0x416035c9	14.013131
39	0x40b489bc	5.6418133
40	0x41c1a6e7	24.206495
41	0x412c826b	10.78184
42	0x41d0644b	26.048971
43	0x4123fe97	10.249656
44	0x41a07fc0	20.062378
45	0x411e5838	9.896538
46	0x4146183e	12.3809185
47	0x412c641b	10.77444
48	0x4194149d	18.510065
49	0x3606cccd	2.0086766e-06
50	0x419ca874	19.582253
51	0x41fe7523	31.807196
52	0x40f8c344	7.773836
53	0x40e9242a	7.2856646
54	0x41463097	12.386863
55	0x42aeee60	87.465576
56	0x41b78e54	22.944496
57	0x41133fbd	9.203061
58	0x40b6c585	5.7116113
59	0x40d92ac1	6.786469
60	0x41c4a2ff	24.579588
61	0x4115c6fa	9.361078
62	0x41653ecf	14.327834
63	0x41a416fa	20.511219
64	0x412e0aa8	10.877602
65	0x41446fa1	12.277253
66	0x424e4da8	51.575836
67	0x41d91c66	27.138866
68	0x41669267	14.410743
69	0x431d84c3	157.5186
70	0x4166fa18	14.436058
71	0x41cd0a03	25.629889
72	0x4157f28b	13.496715
73	0x41640e34	14.253468
74	0x415f2aa5	13.947911
75	0x40bd2d19	5.911755
76	0x4249bfbc	50.43724
77	0x416113eb	14.067363
78	0x41ab6d45	21.428354
79	0x425eef56	55.733727
80	0x41a27dde	20.311459
81	0x42c04d97	96.15154
82	0x41fe9724	31.8238
83	0x41934fb0	18.41391
84	0x00000004	6e-45
85	0x4284d979	66.42475
86	0x00000004	6e-45
87	0x42af3ab9	87.61469
88	0x40f57724	7.6707935
89	0x41a4e5c9	20.6122
90	0x40f2aadb	7.5833564
91	0x00000004	6e-45
92	0x4173977a	15.224482
93	0x41095e03	8.585452
94	0x4156775b	13.4041395
95	0x418e7e75	17.811747
96	0x41855e95	16.671183
97	0x00000004	6e-45
98	0x4182ffe4	16.374947
99	0x41db8908	27.44191
100	0x40e59d2b	7.1754355
101	0x41804c0c	16.037132
102	0x411efcb9	9.9367
103	0x4208246b	34.035564
104	0x42dfb540	111.854004
105	0x4130be4d	11.04646
106	0x4150f6e3	13.060275
107	0x414f105d	12.941495
108	0x413ecdcf	11.925246
109	0x40cfd540	6.4947815
110	0x410c91f8	8.785637
111	0x4299bb03	76.86526
112	0x41aa7949	21.309221
113	0x415b880a	13.720713
114	0x41c02b13	24.021032
115	0x4109ca97	8.61196
116	0x41411fc9	12.07026
117	0x4344ff82	196.99808
118	0x41443b86	12.264532
119	0x19b65342	1.8851986e-23
120	0x41871a33	16.887793
121	0x4134dd26	11.303991
122	0x4185ac6a	16.709187
123	0x41151c01	9.319337
124	0x415aa41d	13.665067
125	0x4292c184	73.37796
126	0x00000004	6e-45
127	0x410e1623	8.880404
128	0x421405b0	37.005554
129	0x414eb7b9	12.919854
130	0x411967b1	9.587815
131	0x41096b45	8.588689
132	0x40d9eded	6.8102937
133	0x41c5e079	24.734606
134	0x40c62a59	6.1926694
135	0x40b9aa3f	5.802032
136	0x4319b589	153.70912
137	0x414e3cbc	12.889828
138	0x414b4975	12.705434
139	0x40111ad2	2.267262
140	0x4212c77a	36.6948
141	0x41a6cdb4	20.850441
142	0x412e1620	10.880402
143	0x41ca9e23	25.327215
144	0x419eed0e	19.86575
145	0x417a6c01	15.651368
146	0x41671438	14.442436
147	0x41124acc	9.143261
148	0x4193c241	18.46985
149	0x411a1b57	9.631675
150	0x4118ef3f	9.55841
151	0x40dfe764	6.996996
152	0x40f88d07	7.7672153
153	0x40ea5c9b	7.3238044
154	0x41573fef	13.453109
155	0x43178c3b	151.54778
156	0x4153b317	13.231223
157	0x4146467f	12.392211
158	0x41722143	15.133121
159	0x00000004	6e-45
160	0x41bd3872	23.652561
161	0x411a217b	9.633174
162	0x00000004	6e-45
163	0x417c4d5c	15.768887
164	0x4265a9b2	57.415718
165	0x432f60f8	175.37878
166	0x418a4f94	17.288857
167	0x410e008b	8.875133
168	0x410c4c14	8.768574
169	0x412e6277	10.899039
170	0x40a6afed	5.2089753
171	0x40f461fc	7.636961
172	0x42a9ed9f	84.9641
173	0x41840790	16.503693
174	0x41402f24	12.011509
175	0x410f20be	8.945494
176	0x4375aa41	245.66505
177	0x419023b2	18.01743
178	0x4110df81	9.054566
179	0x41813116	16.148968
180	0x41ddcb8c	27.724388
181	0x4137a5fc	11.478024
182	0x422c9fb0	43.155945
183	0x42122f4f	36.5462
184	0x41070f5f	8.441253
185	0x00fd07d0	2.3237183e-38
186	0x41884149	17.031878
187	0x40c3a2f0	6.11364
188	0x42463e37	49.560757
189	0x41306170	11.023788
190	0x4199160d	19.135767
191	0x40b6d074	5.712946
192	0x41a72e60	20.897644
193	0x426e97ed	59.648365
194	0x430a82c4	138.5108
195	0x4121c650	10.110916
196	0x41c0b2c1	24.087282
197	0x43232c1a	163.17227
198	0x41d36daf	26.428556
199	0x415b902e	13.7227
200	0x42eb6497	117.696465
201	0x4153f41b	13.247096
202	0x4182d15c	16.352226
203	0x4150d870	13.052841
204	0x413b73c4	11.715763
205	0x40f2b5ff	7.5847163
206	0x431a69a6	154.41269
207	0x4165a740	14.3533325
208	0x41c2fbee	24.373013
209	0x415f714c	13.96516
210	0x4071f737	3.7807138
211	0x4326852c	166.5202
212	0x4165b6ea	14.357157
213	0x3f0c7e2f	0.5488004
214	0x40e4a67e	7.1453238
215	0x41165e18	9.397972
216	0x41b50564	22.627632
217	0x42f48110	122.252075
218	0x41838c0e	16.443386
219	0x40d3fca7	6.6245914
220	0x4171c57d	15.110715
221	0x00000004	6e-45
222	0x41367eb5	11.405934
223	0x40c03b01	6.0072026
224	0x411ccf93	9.800677
225	0x433b22e3	187.13628
226	0x42b0df33	88.435936
227	0x41305370	11.0203705
228	0x4046361c	3.0970526
229	0x414553cf	12.332961
230	0x4174b61d	15.294461
231	0x42b4a00b	90.312584
232	0x4220c549	40.19266
233	0x410bae8f	8.730117
234	0x40f7f7c3	7.7489944
235	0x41ad348b	21.650656
236	0x417a06ab	15.626628
237	0x4212c1b4	36.689163
238	0x42752063	61.281628
239	0x421b827b	38.877422
240	0x42c92c22	100.5862
241	0x419b1581	19.3855
242	0x41daabb3	27.333838
243	0x4199d74f	19.230131
244	0x00000004	6e-45
245	0x42a39ea7	81.80987
246	0x42319619	44.39658
247	0x433c19d1	188.10085
248	0x431953be	153.32712
249	0x40d9fdda	6.8122377
250	0x410bc2ef	8.735091
251	0x4279801e	62.375114
252	0x4108090a	8.502207
253	0x424566f4	49.35054
254	0x40d47c4f	6.6401744
255	0x41a7ff01	20.999514

fc2.weight f4 [128, 256]
0	0x3e195065	0.14972074
1	0xbe92190b	-0.2853473
2	0x3dddd9f2	0.108325854
3	0xbdb3efd1	-0.08785976
4	0xbd984e0a	-0.0743676
5	0xbe169e6a	-0.14708868
6	0xbea4b7b5	-0.32171407
7	0x3db278be	0.08714436
8	0x80061b7c	-5.60873e-40
9	0xbe7b9200	-0.24567413
10	0xbf090553	-0.5352375
11	0xbea53711	-0.32268575
12	0xbcd4d599	-0.025980758
13	0xbd48380d	-0.04888158
14	0x3d3c4f8d	0.045974303
15	0xbe08be24	-0.13353783
16	0xbe360873	-0.1777666
17	0xbe5e680c	-0.21719378
18	0x3e337ac5	0.17527302
19	0x3d51dd57	0.051236477
20	0x3de9bfde	0.11413549
21	0x3d99e8d2	0.0751511
22	0xbd88631f	-0.06659531
23	0xbef4742b	-0.4774488
24	0x3cf328d8	0.029682562
25	0x3e070106	0.13183984
26	0xbec39931	-0.38202813
27	0x3d8c54a7	0.06852084
28	0xbef35376	-0.47524613
29	0x3e5a6b40	0.21329975
30	0x3cd350e3	0.025795406
31	0x3bf16785	0.007367077
32	0xbb6bbf68	-0.0035972241
33	0x3d60d718	0.05489263
34	0x3cc4703a	0.023979295
35	0xbd77bc0c	-0.06048207
36	0xbc9e0728	-0.019290522
37	0xbbe8a581	-0.0070998077
38	0x3e4713af	0.19441102
39	0x3d455fef	0.048187193
40	0xbdedd442	-0.116127506
41	0xbdcf3c27	-0.10118895
42	0xbe3bb898	-0.18332136
43	0xbd79e2cc	-0.061007306
44	0xbc383a10	-0.011244312
45	0x3e5eacc8	0.21745598
46	0xbd35c2e5	-0.04437532
47	0xbe2da0d3	-0.16955881
48	0x3d49ead5	0.04929622
49	0xb7f8ad85	-2.9644705e-05
50	0xbea7147b	-0.32632813
51	0xbbb83cc7	-0.0056224796
52	0xbba41ad6	-0.005008082
53	0xbddbd4e6	-0.107339665
54	0xbd388219	-0.045045946
55	0x3c3ed957	0.011648498
56	0xbea82041	-0.32837108
57	0x3da8a983	0.08235457
58	0xbe1a51a5	-0.15070207
59	0x3e34f2c1	0.17670728
60	0x3e853e67	0.26024172
61	0x3e1dc518	0.15407217
62	0x3c6ff554	0.014645893
63	0x3ce860fc	0.028366558
64	0xbe04d5a2	-0.1297212
65	0x3d971ca6	0.07378511
66	0xbe6e1ea4	-0.23253876
67	0xbea416a4	-0.32048523
68	0xbe27e00e	-0.16394064
69	0x3da08dae	0.07839523
70	0xbe37f948	-0.17966187
71	0x3b8ecb34	0.00435772
72	0xbe85270e	-0.2600636
73	0x3de7e387	0.11322694
74	0x3e2a51ab	0.16632716
75	0x3e698407	0.2280427
76	0x3cb40ecb	0.02197971
77	0xbd23017c	-0.039796337
78	0xbe28b17a	-0.16473952
79	0xbe3a0639	-0.18166436
80	0xbcf42d4e	-0.02980676
81	0x3d743975	0.059625108
82	0xbe43588f	-0.19076751
83	0x3d585434	0.052814677
84	0x8005bc4d	-5.26727e-40
85	0xbcc078cf	-0.023495106
86	0x00061478	5.58356e-40
87	0x3db0f128	0.08639747
88	0xbe19efdd	-0.15032907
89	0xbca7b73c	-0.020473115
90	0xbdd428ca	-0.103593424
91	0x80055847	-4.90845e-40
92	0x3d80c224	0.062870294
93	0x3e0f3340	0.13984394
94	0x3c351bbe	0.0110539775
95	0xbebd3c42	-0.36960036
96	0xbd2ba774	-0.041907743
97	0xab3085c1	-6.271338e-13
98	0x3d96af7f	0.07357692
99	0x3dd776fd	0.10520742
100	0x3da38020	0.07983422
101	0xbd83d6b4	-0.06437436
102	0xbcb14666	-0.021640014
103	0xbd8074b5	-0.0627226
104	0xbc9b5863	-0.018963045
105	0x3cfc5767	0.030803395
106	0xbe8f8f02	-0.28038794
107	0xbe1a0d6d	-0.15044184
108	0xbef5363a	-0.47892934
109	0xbe7d30a5	-0.24725588
110	0xbe84ba99	-0.25923613
111	0x3df5939c	0.11991045
112	0xbee5d457	-0.44888565
113	0xbcc6d028	-0.024269179
114	0xbdd53107	-0.10409742
115	0xbec77621	-0.38957313
116	0xbdd3012b	-0.10302957
117	0x3e4c099f	0.19925545
118	0xbe73cdad	-0.23808928
119	0x81580565	-3.9676805e-38
120	0xbd365ff3	-0.044525098
121	0x3e0a3f15	0.13500626
122	0xbe20ea94	-0.15714484
123	0x39e649b7	0.0004392394
124	0x3d8c54d7	0.068521194
125	0xbd229e08	-0.03970149
126	0x80055a50	-4.91576e-40
127	0xbd87e3a6	-0.06635217
128	0x3dd6d83d	0.10490463
129	0xbc1f737e	-0.009732125
130	0xbe968d88	-0.29404855
131	0xbe68e30d	-0.22742863
132	0xbe0ba9df	-0.1363902
133	0x3e9ac3e0	0.30227566
134	0xbdbfbc8b	-0.093621336
135	0x3c9fe910	0.019520313
136	0xbd8bb977	-0.06822484
137	0x3cdbd3b9	0.026834356
138	0xbc0b3e42	-0.00849873
139	0xbb3f58f3	-0.0029197305
140	0x3da7b9cc	0.08189735
141	0x3e00859f	0.12550972
142	0xbea4aa65	-0.3216125
143	0x3e58bc12	0.21165493
144	0xbbb3ef3d	-0.005491166
145	0xbbd11510	-0.0063806847
146	0xbc5ab8d5	-0.013349731
147	0xbdd6353b	-0.10459372
148	0xbe8f4f8f	-0.27990386
149	0x3be176df	0.0068806256
150	0x3cb0f988	0.02160336
151	0x3d8e3d7a	0.069453195
152	0xbdf65212	-0.120273724
153	0xbd9ce42f	-0.0766071
154	0xbec822dc	-0.39089096
155	0x3e18e3bd	0.14930625
156	0xbd5373af	-0.051623996
157	0xbd006e7c	-0.031355366
158	0xbe138126	-0.14404735
159	0x800570f2	-4.99695e-40
160	0xbe8b3a13	-0.27192745
161	0xbde08924	-0.109636575
162	0x0006694f	5.8879e-40
163	0x3d9df7e5	0.07713298
164	0xbe1920de	-0.14953944
165	0xbb4a2a70	-0.0030848049
166	0x3db29fd1	0.08721889
167	0xbd690d67	-0.056897547
168	0xbe8945c1	-0.2681103
169	0xbea94ef8	-0.3306806
170	0xbe821bdd	-0.25411883
171	0xbe57d36f	-0.2107675
172	0x3e7d47ed	0.24734469
173	0x3dc8434d	0.097784616
174	0x3d8aa5b3	0.06769886
175	0xbea6e8ca	-0.3259948
176	0x3e161dd4	0.14659816
177	0x3c47e7bb	0.012201245
178	0x3d80abcf	0.0628277
179	0x3dcf3da7	0.10119181
180	0xbe01d3c0	-0.12678432
181	0xbeb724f3	-0.35770378
182	0xbe6ccfa1	-0.23126079
183	0xbccd0b2e	-0.025029745
184	0xbe529784	-0.20565611
185	0x329004ff	1.6766078e-08
186	0xbe59514b	-0.21222417
187	0xbe01b4a7	-0.1266657
188	0x3d7246a1	0.05914939
189	0x3c172a6a	0.009226421
190	0xbda07cb4	-0.07836285
191	0xbc6b3146	-0.014355009
192	0xbd92a63a	-0.071606115
193	0x3e1dfb1b	0.1542782
194	0xbd848a7f	-0.064717285
195	0x3d889c15	0.06670395
196	0xbd829743	-0.06376507
197	0x3c99d797	0.018779559
198	0xbe4b269d	-0.19838949
199	0x3d3639f3	0.04448886
200	0x3e245e6e	0.16051647
201	0xbda00b57	-0.07814663
202	0xbd73c292	-0.05951173
203	0xbd5ac928	-0.053414494
204	0xbe0c889d	-0.13723989
205	0x3d1778bf	0.036980387
206	0x3e09e321	0.13465549
207	0x3d76e9b1	0.06028146
208	0x3e1e602b	0.15466373
209	0x3ddfecf7	0.10933869
210	0xbbd5db3b	-0.0065263784
211	0xbd014f45	-0.031569738
212	0xbcc26dff	-0.02373409
213	0xbc123402	-0.008923532
214	0xbd4129bc	-0.04715894
215	0xbee47f76	-0.44628495
216	0xbd972fd1	-0.07382167
217	0x3dc70030	0.09716833
218	0x3dfa3054	0.12216249
219	0xbef2b525	-0.47403827
220	0xbe81f731	-0.25383905
221	0x8005e235	-5.40325e-40
222	0x3daff9cd	0.085925676
223	0x3d41f139	0.04734919
224	0xbe70d838	-0.23519981
225	0x3d8d74fa	0.06907077
226	0x3e6843b5	0.22682078
227	0x3cc4e286	0.024033796
228	0x3d2703dc	0.040775165
229	0xbe403ff5	-0.18774398
230	0xbeec5967	-0.4616196
231	0xbd03594c	-0.032067582
232	0xbe006cb4	-0.12541467
233	0x3e0a447a	0.13502684
234	0xbdb68878	-0.08912748
235	0x3d0de725	0.034644265
236	0x3e477316	0.19477496
237	0xbdc6996e	-0.09697233
238	0x3db74bdd	0.08950017
239	0xbec649b8	-0.38728118
240	0x3c1b3071	0.009471999
241	0x3d8a8465	0.067635335
242	0xbe3454ca	-0.1761047
243	0x3e8f371d	0.27971736
244	0x0005bae1	5.26217e-40
245	0x3dd6c301	0.10486413
246	0xbda717e2	-0.08158852
247	0x3d28cc6d	0.04121058
248	0x3e0496dc	0.12948173
249	0x3cd44780	0.025913
250	0xbdb34717	-0.08753794
251	0x3e31fb91	0.17381121
252	0xbd8ffc0c	-0.07030496
253	0xbde01353	-0.10941186
254	0x3c9567d9	0.018237995
255	0xbd19ffe7	-0.037597563
