FraudDetection_Light.onnx (onnx, 17232 bytes, 6 tensors)

fc1.weight f4 [64, 30]
00000000: 1352 a53e 06d3 a03e 9085 48be ad73 403d
00000010: 0a50 06bf 3f0f 92be cb5a d73e 8b30 9dbe
00000020: da59 153f c645 ac3d 8e8c c63e 6aae 10be
00000030: 1458 7f3f 7252 f2be 6677 9cbd 76d1 113f
00000040: 8ca1 b6bc 6d7c b53e 71fd 953d 0f86 d0be
00000050: 4734 273d 15f1 d6be 3d88 0f3f f41d 0c3d
00000060: 9316 cebe 0d39 5bbf 4d00 4dbe 5eb1 14be
00000070: 9e43 b23e 9fd0 3c3c 884d 0c3e a643 423e
00000080: c964 afbd ba9d 683e 6aaf 63bd d49a 33be
00000090: 579a 43bd b215 5dbe e9bf 0f3e c627 e4bd
000000a0: c210 203e 44e1 3bbe ae8e 26bd fb03 e4bd
000000b0: bd98 00be cd48 8dbe 6b8e 013f 60bc 4b3e
000000c0: a456 02be f7d7 46be 3467 7f3c e25c b7be
000000d0: e792 c2be b12d 333e 6a1a 68be 9467 9bbe
000000e0: 852b e0bc 1223 89bd f0b7 76bc 6ba5 02bd
000000f0: cb41 8c3f 9df4 84bc 0f40 913d 4f5d ffbe
00000100: 778e 3bbf a9b8 243f 30f1 92be 4c94 1d3e
00000110: e08a 9b3e 423d 2f3e e97f db3d 2325 1a3e
00000120: f015 ea3e 23b1 8abf 25d1 ab3e 333d dabe
00000130: c322 b73d 2a86 9bbe b904 25be e5ee 083e
00000140: 77b0 8fbe 4f2d d3be d542 00bf 6f75 5c3e
00000150: a77b cbbe 63e7 3dbd 75ea 0ebe 3a92 4abe
00000160: 983b bbbd 854c f0be 2656 363e 334b 063f
00000170: 5600 e4bd cc72 113f fcd7 21be a098 563d
00000180: 46ef c23e 015c 82be ed1c 343e 055f 7f3e
00000190: 4a47 16bf 534a 35bd 9e66 69bc 5b4a 10be
000001a0: d566 27be 74c3 18be 1dcc 65bd f639 9f3b
000001b0: f482 723e f42c dfbe 6969 9bbe dbcd 42be
000001c0: c872 1e3d d9f4 943e 9d5b f73e c104 ddbd
000001d0: 0f9d cabc 66d3 053e 06a6 fcbe 13e1 5bbe
000001e0: 58da aabe 4df3 1d3e 6037 993e a7e1 bb3e
000001f0: 557d 69be cb41 66bd d6c6 573d af31 163e
00000200: 83a8 2c3e b7c1 1b3e 884c adbd df10 97bd
00000210: 25cf 133f df13 8c3e 34ab a8bd ddb1 f63d
00000220: 10c9 103e 6170 a0be 1f55 80bd 8c95 35be
00000230: edff 60bd a1e0 39be 8641 53bd e3a7 453d
00000240: bd53 503e 4578 35be 863f 0dbe c3fa c93d
00000250: ce64 713d 6ec5 e7be d018 88bd ddd5 1f3d
00000260: 4c5f ddbd feb8 613d 21bf 773c 99b3 0abe
00000270: 5ce7 69bd c26d 953e c7c0 7e3e 9adc fd3d
00000280: cf7e 17bd f017 15bf a05f 01be f72f f13d
00000290: 8f29 e43e 2ba7 12bc e314 db3d d39d 513e
000002a0: 011c 41be e345 cdbd 8751 febd 2c09 8bbe
000002b0: 2ef3 05bf ec88 a6bd c15e f83c 6aa4 89be
000002c0: 2aa5 23bf 4ab9 f63d 02de 803e 6f68 e83c
000002d0: 995a 53be b19d 0fbf 9916 5b3f 86ba 573f
000002e0: 465d c2be bce9 10be 36e8 133e 30c6 da3e
000002f0: 92f1 c83c cd42 45bf 358a 683e bd70 26bf
00000300: 19d5 9c3e 62c0 ba3e 59eb 913e 8b07 8abf
00000310: 7822 933e 7ff2 f63e 7dce 0b3f 7a99 b13e
00000320: 0c00 b63e bed5 713e 4110 fbbe cc14 1cbe
00000330: 9a6f 073f 096b 3c3d d314 f73b ba27 85bc
00000340: 3a24 73bd 3219 f23c 0d11 a1bf 5023 773e
00000350: ca3a 8cbc dde8 d23e 6aed 2dbf 24da a23d
00000360: 830f 1e3f 68ea 8cbc 7fed 0f3f a575 c4be
00000370: a212 b13d fc8b e0be 14ef 8c3d df4d f2be
00000380: b744 963e 672a a73e 00fc c1bd e4e3 3b3f
00000390: 2f2c c5be 9f52 62bb 8413 263e 06c5 bbbd
000003a0: 1092 3c3e 7433 13be 31cc 073f c6b0 583f
000003b0: 36b4 cd3e 6ecf 16be 9b99 b73e 6753 413d
000003c0: 6123 d5be f11d f93d 1551 b2bb c88a 113f
000003d0: 65ac 53be effb f53d d20a c7be fbdc cebd
000003e0: 985e 883d 61af 5ebc 04a1 b6be c492 a13e
000003f0: bdc1 bf3c c6ee 84bd f711 453d bad6 073e
0.3228918 0.31410998 -0.195822 0.046985317 -0.5246588 -0.28527257 0.42061457 -0.30701098
0.5834023 0.08411746 0.3877911 -0.14129034 0.9974377 -0.47328526 -0.07639961 0.5696024
-0.022293828 0.35446492 0.07323731 -0.4072728 0.04082134 -0.41980806 0.5606726 0.034208253
-0.40251598 -0.8563393 -0.20019646 -0.14520785 0.34817213 0.0115243485 0.13701451 0.18971118
-0.08564145 0.22716418 -0.05558721 -0.17539531 -0.04775461 -0.21590307 0.14038052 -0.11140399
0.15631393 -0.18347651 -0.040663414 -0.11133572 -0.12558265 -0.27594605 0.5060794 0.19896078
-0.12728363 -0.19418322 0.01558857 -0.3581305 -0.38002703 0.17497899 -0.22666326 -0.3035246
-0.027364502 -0.06696142 -0.015058503 -0.031896036 1.0957578 -0.016229922 0.07092296 -0.49875876
-0.7326426 0.6434427 -0.28699636 0.15388602 0.3037939 0.17113212 0.10717756 0.15053229
0.45719862 -1.0835308 0.33558002 -0.42624816 0.08942177 -0.30375797 -0.16115083 0.13372381
-0.2806432 -0.41245505 -0.5010198 0.21529172 -0.39742777 -0.046363246 -0.13956626 -0.19782344
-0.09142226 -0.4693338 0.178063 0.52458495 -0.111328766 0.5681579 -0.15805048 0.05239165
0.38073176 -0.25460818 0.1758916 0.24938591 -0.5870253 -0.044260334 -0.014245657 -0.14090864
-0.16347821 -0.1491831 -0.05610286 0.0048592044 0.23682767 -0.43588984 -0.3035386 -0.1902384
0.038683683 0.29093054 0.48312083 -0.10791922 -0.024733094 0.13068923 -0.49345416 -0.21472578
-0.33369708 0.15424843 0.2992506 0.36695597 -0.22801717 -0.05621509 0.05267986 0.1466739
0.16861157 0.15210615 -0.08461863 -0.07376265 0.5773795 0.2735891 -0.082357794 0.120456435
0.141392 -0.31335738 -0.062662356 -0.17732829 -0.05493157 -0.18152095 -0.05157616 0.048255812
0.20344444 -0.1772166 -0.13793764 0.09862282 0.058934025 -0.45267814 -0.066453576 0.039022315
-0.10809192 0.055108063 0.015121252 -0.13545074 -0.057105407 0.291853 0.24878226 0.12395592
-0.03698617 -0.5823965 -0.12634134 0.11776727 0.44562957 -0.008950989 0.10697343 0.20470361
-0.18858339 -0.100230955 -0.12417894 -0.27155435 -0.5232419 -0.081315845 0.03031862 -0.2688325
-0.63923895 0.1204706 0.2516938 0.02837011 -0.20640029 -0.56099993 0.85581356 0.8426899
-0.37961787 -0.14151663 0.1444405 0.4272933 0.024529252 -0.77055055 0.22708972 -0.65015775
0.3063133 0.364749 0.2849987 -1.0783552 0.28737235 0.48231885 0.5461195 0.34687406
0.3554691 0.23616692 -0.49035838 -0.15242308 0.52904665 0.046000514 0.0075403242 -0.016254295
-0.05936072 0.02955303 -1.2583328 0.24134564 -0.017117877 0.41193286 -0.6794039 0.07951763
0.6174242 -0.017201617 0.56221765 -0.38371006 0.08646132 -0.438568 0.06881538 -0.47325036
0.293493 0.32649538 -0.09471893 0.7339461 -0.38510272 -0.003453411 0.16218382 -0.091684386
0.18415093 -0.14375097 0.53045946 0.84644735 0.40176553 -0.14727566 0.3585938 0.04719868
-0.41628554 0.12163914 -0.0054417946 0.5685239 -0.20671232 0.12010943 -0.38875443 -0.101007424
0.06658667 -0.013591618 -0.3566972 0.31557286 0.023407811 -0.06490855 0.048112836 0.13265505

fc1.bias f4 [64]
00000000: d179 82be 6c43 53bf a785 ed3e bc56 47bf
00000010: 1694 a6be 1804 18bf 7e47 14bf 8baf 33bf
00000020: ca29 febe b70d 6ebe e7ac d3be 4ac0 2f3e
00000030: 515c 88be 444d 6ebf f015 6dbf 92a7 0cbe
00000040: d1eb 8bbe 0e5c 54bf 378b 29bf 1e54 c6be
00000050: d9f5 62be e61e 45bf 27be 51bd 643e 33bf
00000060: c881 19bf f821 8e3c 0322 90bd d8bc a6bd
00000070: 4685 ddbe 0fcb cebe 40c1 3ebd 48f5 0fbe
00000080: 70c6 15bf 0e66 31bf a7cc cebc 2022 27bf
00000090: 9c0b 26be 2ae5 ffbe 31c7 f5be f38e 9dbf
000000a0: c878 d0bd aeba f8be b254 0a3d 63e1 b4bf
000000b0: c1fb 37bf a952 59bf 3948 ea3d 202c 28bf
000000c0: 1532 7ebf 829a f2bd 414d 70bf c09a 02bf
000000d0: f41a 28be 4841 4cbe c47d 8abe 8dbf 84bf
000000e0: e601 803d b7e2 1ebf b0bf 06bf 810f 85be
000000f0: 2e29 96be e284 38bf 8444 61be 7492 32bf
-0.25483564 -0.8252475 0.4639103 -0.7786672 -0.32534856 -0.59381247 -0.5792159 -0.7018973
-0.49641258 -0.2324742 -0.41342852 0.17163196 -0.26632932 -0.9308665 -0.926116 -0.13735798
-0.2732835 -0.82952964 -0.6622805 -0.3873605 -0.22164096 -0.7700027 -0.051206734 -0.70017076
-0.59963655 0.017350182 -0.07037737 -0.08141488 -0.43265742 -0.40389296 -0.046571016 -0.14058411
-0.58505917 -0.6929635 -0.02524407 -0.65286446 -0.16215366 -0.49979526 -0.48003533 -1.230925
-0.10179287 -0.48579925 0.033772178 -1.4131283 -0.7186852 -0.84891754 0.11439557 -0.6569233
-0.9929517 -0.11845876 -0.9386788 -0.5101738 -0.16416532 -0.19946778 -0.27049077 -1.0370957
0.06250362 -0.6206469 -0.5263624 -0.2598839 -0.29328293 -0.72077763 -0.21998793 -0.6975472

fc2.weight f4 [32, 64]
00000000: 4318 cc3e 0e96 773e ea97 153f 35f1 a7bc
00000010: 06d7 37be 1c06 80be a994 d93e ce08 ac3e
00000020: 8447 ccbe 7538 aa3d 4489 d7bd 1053 863d
00000030: 996b e53e e3d8 2fbe db52 43bd 350c 073f
00000040: 1cd4 993e 9128 20bc 8097 953b 7206 a33e
00000050: 68f2 df3e 1c03 5cbe ad18 5b3e 469c 38bc
00000060: 7e78 1bbe 0050 0a3f f356 c83e b2fd ff3e
00000070: 8b8f 353d 9380 5abe 4915 ea3e 4211 b23d
00000080: 9936 94be 2ffe 3ebe fe6b ee3e 9831 563e
00000090: dc93 0f3f 06dc 39bc d592 8e3d 1b75 4b3e
000000a0: 435c 6f3e bbd9 013f 80b5 003f 43c3 01be
000000b0: 0723 e0bc 328f 42bd 8974 183e 4195 aa3c
000000c0: d531 3cbd 4f16 8c3e 3554 a5be 1969 e53e
000000d0: 66ca 53be 2f5f d33e 183a a13e f1ee af3e
000000e0: 661c b23e 676d c73d ca00 983e 013d e13e
000000f0: 7325 103f 05b7 113f 1fc5 123f 0de2 6fbe
00000100: 7d27 d13d 6403 74be e1fd 843b 2a25 0dbe
00000110: aa01 a1bd bf91 bcbd fba3 453d 27a2 c93d
00000120: d57a 183d 2971 c3be 930a 32be f300 8cbd
00000130: 20a6 223d 97fa 6bbe eb3a a5be 0310 273d
00000140: 474a 223e 3770 9fbe 8edd 9ebe 62e3 473d
00000150: 732d 87bd 339d ccbd 2b11 923d cb0b 1dbe
00000160: 15fc 39be 8c05 b2bb f817 6c3c afee 673c
00000170: b1df 74be b5b9 c9bd 81fc 553e 6142 9c3d
00000180: abe5 4abe c285 33be 34ff a63c 03a6 8fbd
00000190: 84cc 7e3d 6623 85be 3e92 86be dfb9 48be
000001a0: 0dca 703e c603 88bc c990 2a3d f327 edbd
000001b0: bdf6 8ebe f7e7 82be 4493 f43d 6c51 b9be
000001c0: 3ce6 88be 3777 9fbe cbce 2dbe f270 9d3b
000001d0: 352b 89bd 873b 33bd 665b acbc ff01 c33d
000001e0: 21a9 473d f9c2 69be c4e0 983d 25ee 503b
000001f0: cc8b c93b 4ed5 8f3c 77d8 58bd 3c6f 28be
00000200: a06e 153b 72a3 55b8 3e49 feb9 8e89 1a3b
00000210: 2739 9336 fe0a e0bb 2a11 3cbc 0be0 27b9
00000220: 6f55 473a ca5f 1f37 fc5d 173c 2d31 48bc
00000230: 6534 49bb d1a9 9ebb b98f 9dbb 1d6e 4038
00000240: 88aa 0bbc 905b daba aaca 82bb dae4 8038
00000250: 5490 60b7 0374 e0bc ae9a 7638 dae9 b0bc
00000260: 4117 06bd eb3e 2439 0a0e e235 8c9d bcba
00000270: d81e 253d 099a c0ba cb1b 75ae b847 ef39
00000280: ccc1 d8ba 762e 74bc fb6a 2b3b aeca 26ba
00000290: 4f8b 94ba 5fe3 8bbc 4fbe b33c eb82 84bc
000002a0: 395b 8739 c465 93bc dccf bfb9 89de 07bc
000002b0: 8317 34bb f8fe a3bb bcbd 8db5 3d92 1ebd
000002c0: 9e5a 903c fd4c 53bc 0d1d 3ebd 47fd 9bbb
000002d0: c1f4 0c37 5a93 46b7 b0b4 882e b66b 16a9
000002e0: 7b9b b1aa ee82 44bc a49a 06b9 2fc1 0eb8
000002f0: f945 3a3b 72c0 5b3a 99ee 8c39 cfc3 13b9
00000300: de5c 04bd ddf6 dc3d 9509 5fbd 54a0 da3c
00000310: 12c3 bf3c fd3b c63c bd3b 5cbc 2d11 e8bc
00000320: bf1c 313e 4911 9a3d 19f6 d63c 429f 83bd
00000330: 545b db3c 1cc5 5a3d 5f3e 583d a027 39bd
00000340: 4e37 74bd 6dcd c33d 880d 323e 785f 18bb
00000350: e5c9 fc3b 77e9 12bd 7d81 733b 44b9 13bc
00000360: 70e4 3cbc 6c05 3ebd 408a aabc aff9 593b
00000370: a55d 1abd f2ba 863c 8e6b 4cbd 3779 a03c
00000380: 60f6 423c cf06 193d 1a04 d9bc 0bd1 79bc
00000390: 9555 64bc 9d83 093e 73a2 8a3c 4391 683d
000003a0: c3aa 973d 0086 23bc 2b78 c3bc bdea 8a3d
000003b0: ff54 233d 6eac 4c3e a25f a53d 20e4 853d
000003c0: 6818 d43d f3a8 133e be71 513d 0711 81bd
000003d0: 86da 4abd d4f8 6dbd d0f0 37bd bc51 77bd
000003e0: b65f 55bd c8d1 583e 041f 14bd f187 f9bc
000003f0: d777 30bd 089f cabb 35a5 16bd 0486 bdbb
0.3986226 0.24178335 0.5843493 -0.020500759 -0.17953119 -0.2500466 0.4249623 0.33600467
-0.39898312 0.083115496 -0.10524228 0.06558812 0.44808653 -0.1717258 -0.04768644 0.52753
0.3004464 -0.009775297 0.0045651793 0.31840855 0.4373963 -0.21485561 0.21396132 -0.011267727
-0.15182683 0.5402832 0.39128837 0.49998242 0.044326346 -0.2133811 0.45719364 0.08694698
-0.28947905 -0.18651651 0.46566767 0.20917356 0.5608499 -0.011343962 0.069616 0.19868891
0.23375039 0.50722855 0.5027695 -0.12672143 -0.027360452 -0.047499843 0.14888205 0.020823123
-0.04594596 0.2736077 -0.32290807 0.44806746 -0.20682678 0.41283557 0.31489635 0.34361985
0.3478729 0.09737664 0.29688102 0.43991855 0.5630714 0.5691989 0.5733203 -0.23426075
0.1021261 -0.23829418 0.004058585 -0.13783708 -0.078616455 -0.09207486 0.048252087 0.09845381
0.037226517 -0.38172272 -0.17386846 -0.068361185 0.03970921 -0.23044811 -0.32271513 0.040786754
0.15848647 -0.311403 -0.31028408 0.048800834 -0.066004656 -0.09990921 0.07132181 -0.1533653
-0.18162568 -0.00543279 0.0144100115 0.014156028 -0.23913456 -0.09849874 0.20897104 0.07629848
-0.19814174 -0.17531493 0.020385362 -0.07014086 0.06220676 -0.2600357 -0.2628345 -0.19602154
0.23514576 -0.016603362 0.041641984 -0.11579885 -0.2792262 -0.255676 0.11942151 -0.36194932
-0.26738155 -0.3114564 -0.16973417 0.004804724 -0.06697694 -0.04375794 -0.021039676 0.09521865
0.04874528 -0.22828282 0.07464746 0.0031880226 0.0061506983 0.017557766 -0.052940812 -0.16448683
0.0022801533 -5.0935378e-05 -0.00048501225 0.0023580524 4.387595e-06 -0.006837248 -0.011478702 -0.00016009824
0.0007603978 9.499441e-06 0.009238716 -0.012218756 -0.0030701396 -0.004842021 -0.004808393 4.5878918e-05
-0.008524545 -0.0016659368 -0.0039914446 6.1461426e-05 -1.3385044e-05 -0.027399069 5.8795027e-05 -0.021595884
-0.03273702 0.00015663698 1.6842398e-06 -0.0014390214 0.040312618 -0.0014694344 -5.5731236e-11 0.00045639067
-0.0016537248 -0.014903655 0.0026156295 -0.0006362599 -0.0011333021 -0.017076192 0.021941332 -0.016175708
0.00025817173 -0.017992862 -0.00036585226 -0.008292803 -0.0027479834 -0.00500476 -1.0560539e-06 -0.038713682
0.017621335 -0.012896773 -0.046414424 -0.0047604176 8.4016365e-06 -1.1836028e-05 6.2166605e-11 -3.3400115e-14
-3.1549402e-13 -0.011994107 -0.00012836844 -3.4035354e-05 0.0028423055 0.00083828636 0.0002688065 -0.00014091957
-0.032315128 0.10789273 -0.054452498 0.026687779 0.023408446 0.024198527 -0.013441977 -0.028328503
0.17296122 0.07522828 0.026240395 -0.064268604 0.026776947 0.053410634 0.052793857 -0.045203805
-0.059623055 0.09560666 0.17387974 -0.0023250263 0.0077144974 -0.03586718 0.0037156038 -0.009016339
-0.011529073 -0.04639189 -0.020817876 0.0033260395 -0.037686963 0.016446564 -0.04990726 0.01958905
0.011899561 0.03736001 -0.026491214 -0.015247594 -0.01393642 0.13429113 0.016923165 0.056779157
0.07405617 -0.009980679 -0.023861011 0.06783054 0.03987598 0.19987652 0.08074881 0.06537652
0.103562176 0.14419918 0.051133864 -0.06302076 -0.049524806 -0.05809863 -0.04490739 -0.060380682
-0.05209323 0.21173775 -0.03616239 -0.03046033 -0.04308304 -0.006183509 -0.036778647 -0.005783798

fc2.bias f4 [32]
00000000: ba67 ca3d 5353 073f 1a0d 22bd 74f2 513c
00000010: ec9e 6ca1 7a51 21bc 5abc 733e c655 b33d
00000020: 5843 93bc d46b 313f e342 fd3e 1b7b 14bd
00000030: 6f4d 99b2 f621 7d3e d7e5 8a3e a318 073e
00000040: dd71 4d3f 1618 473d 6ac1 4c3d 57e4 2ebd
00000050: e471 2dab 0206 df3e f5ac 12b5 f0ed 673e
00000060: f075 11bd 8b39 d83e d0f0 043e 163c 823f
00000070: 221a a1bd dce4 1c3d 1aad 59be 1ca4 92bd
0.098830655 0.5286152 -0.039563276 0.012814153 -8.017024e-19 -0.009846086 0.23802319 0.08756594
-0.017976448 0.6930516 0.49465093 -0.036250215 -1.7846757e-08 0.24719986 0.2712848 0.13192992
0.80251867 0.048606955 0.04998914 -0.04269823 -6.162e-13 0.4355927 -5.4640924e-07 0.2264936
-0.035512865 0.42231402 0.12982488 1.0174587 -0.078663126 0.038304195 -0.2125744 -0.07160208

fc3.weight f4 [2, 32]
00000000: 3788 b03f b6e1 323f f64b 013d e223 7fbc
00000010: d474 7d32 6b29 903c 3298 e43e 6b66 43bd
00000020: f656 cb3c 7013 a53f e08e 0fbf eb6e 5a3c
00000030: 9305 2c31 65e5 48be 8d6f 50be fca6 463e
00000040: 188c f1be 9799 f43c 3236 dcbd 01e0 eb3c
00000050: 394a 113a 1cdf c83e 6ca3 2b3b 5b4e 03bd
00000060: bfa0 243c d275 203f 6ea7 bd3f 1c79 97bf
00000070: d1a0 123c 8130 303d 7739 1b3f e257 b73c
00000080: f157 b1bf 95fb 32bf 5b59 01bd ed7f 7e3c
00000090: 3276 7db2 8d5a 90bc 9bbc e9be 154a 433d
000000a0: 88b2 cbbc 89ba a5bf 07e7 063f 16d7 5abc
000000b0: 1e31 2cb1 1ce1 483e fbae 5b3e c99f 42be
000000c0: bfae 0a3f 34fe f4bc 6f24 dc3d 200b ecbc
000000d0: 2aa0 11ba 5034 c8be b352 0fbb 26a7 60bc
000000e0: 63db 24bc 33d8 1abf 84de a7bf 3358 a43f
000000f0: 7244 13bc b249 30bd 01bd 19bf b889 b7bc
1.379157 0.6987566 0.031566583 -0.01557252 1.4753102e-08 0.017597875 0.44647366 -0.047705095
0.02482174 1.2896557 -0.56077385 0.013332109 2.5032463e-09 -0.19618757 -0.20355053 0.19399637
-0.47177196 0.029858394 -0.107525244 0.028793337 0.0005542371 0.3923272 0.0026189936 -0.032057147
0.0100480905 0.6267978 1.481672 -1.1833835 0.008949474 0.043015007 0.6063456 0.022380773
-1.3854963 -0.69915134 -0.031579357 0.01553343 -1.4753413e-08 -0.017621303 -0.45651707 0.047678072
-0.024865404 -1.2947551 0.5269627 -0.013356945 -2.5057214e-09 0.19617122 0.21453469 -0.19006266
0.5417289 -0.02990637 0.10749137 -0.028813899 -0.00055551773 -0.3910241 -0.002186936 -0.013711726
-0.0100620715 -0.60486144 -1.3114781 1.2839416 -0.008988487 -0.04303903 -0.6005402 -0.022404537

fc3.bias f4 [2]
00000000: 352c babe 485c 033f
-0.36361852 0.51312685
