FraudDetection_Simple.onnx (onnx, 50133 bytes, 6 tensors)

fc1.weight f4 [128, 30]
0	0x3e05c87d	0.13064761
1	0x3d2cb1bb	0.042161684
2	0xbcf3c0ca	-0.029755015
3	0xbddb312e	-0.1070274
4	0xbe416968	-0.18887866
5	0x3d677bb6	0.056514464
6	0xbc2c1879	-0.010503882
7	0x3d8fc79f	0.070204966
8	0x3dee0254	0.11621538
9	0x3e1ac76e	0.15115139
10	0x3d176ea8	0.036970764
11	0xbf01b397	-0.5066466
12	0xbc8cf730	-0.017207712
13	0xbe991964	-0.29902184
14	0x3e8f4468	0.27981877
15	0x3e7f54cd	0.24934693
16	0xbde12de5	-0.10995082
17	0x3e253ee6	0.16137275
18	0xbe4ebb59	-0.20188655
19	0x3d9756d1	0.07389606
20	0xbdb3c3a1	-0.08777548
21	0xbd316afe	-0.043314926
22	0xbe297888	-0.16549885
23	0xbe029b50	-0.1275456
24	0xbe4404d2	-0.19142464
25	0xbd09bdea	-0.03362838
26	0xbea0fddd	-0.31443682
27	0x3cdbf2a2	0.026849095
28	0x3df6d6d4	0.12052694
29	0x3d3ed6e1	0.046591643
30	0xbf0c69b7	-0.5484881
31	0x3f051e87	0.51999706
32	0xbe7294aa	-0.23689523
33	0xbeb4f17f	-0.35340497
34	0xbf23e7c6	-0.64025533
35	0x3f018cb7	0.5060534
36	0xbd1302f2	-0.03589148
37	0x3e534613	0.206322
38	0x3e8950ff	0.26819608
39	0xbc330479	-0.010926359
40	0x3e2c2438	0.16810691
41	0x3e356f99	0.17718352
42	0x3da3c4b6	0.07996504
43	0x3e87aa25	0.26496997
44	0x3f5be977	0.85903114
45	0x3e8616a9	0.26189163
46	0xbebeede1	-0.37290862
47	0x3b6bb89a	0.0035968185
48	0x3eec80c5	0.46191993
49	0xbcf23bac	-0.02956947
50	0x3e873140	0.26404762
51	0xbf079316	-0.5295881
52	0xbc806e63	-0.015677636
53	0xbd7e0238	-0.062013835
54	0xbdae4d5e	-0.0851085
55	0x3f36c4c2	0.7139398
56	0xbd5122fd	-0.051058758
57	0xbe9311d8	-0.2872455
58	0xbea87d5b	-0.3290814
59	0xbe1c054d	-0.15236397
60	0xbdef4908	-0.116838515
61	0x3e3a9b78	0.18223369
62	0xbe21b06e	-0.15789959
63	0x3e08124d	0.13288231
64	0xbe66b0ff	-0.22528456
65	0xbdfb6031	-0.122742064
66	0x3c4ea59c	0.012612727
67	0xbdd35f81	-0.1032095
68	0x3dd32aa2	0.10310866
69	0xbd18cc3c	-0.037304148
70	0x3d909d41	0.07061244
71	0xbd8644d9	-0.065561004
72	0x3e77492d	0.24149008
73	0x3ddb5930	0.107103705
74	0x3dc9b927	0.09849768
75	0xbde878a7	-0.113511376
76	0xbd62b386	-0.05534699
77	0xbe31ac07	-0.1735078
78	0xbd58671c	-0.052832708
79	0x3de0b7fb	0.109725915
80	0x3d4beaff	0.049784657
81	0xbd4cf808	-0.05004123
82	0xbd50d927	-0.050988343
83	0x3d747139	0.05967829
84	0xbc6c8ea2	-0.014438303
85	0x3dbdd3c9	0.092689104
86	0x3dfa19d0	0.122119546
87	0xbd482412	-0.048862524
88	0xbdb34772	-0.087538615
89	0xbe47839d	-0.194838
90	0xbe1104f1	-0.14162041
91	0x3ea76dd0	0.32700968
92	0x3e0878af	0.13327287
93	0x3eaef0ff	0.3416824
94	0xbccc4578	-0.024935469
95	0xbdfdc7a1	-0.12391592
96	0x3df4302a	0.11923249
97	0xbe20fd89	-0.15721716
98	0xbe12c2db	-0.14332144
99	0xbd894e9d	-0.067044474
100	0xbed8cfdb	-0.4234608
101	0x3dc360c8	0.09539944
102	0xbcd44168	-0.025910094
103	0xbd832c54	-0.06404939
104	0xbe06d77f	-0.13168143
105	0xbd2630ce	-0.040573888
106	0x3e20e08b	0.15710656
107	0xbd5ebb7f	-0.05437803
108	0xbbc18333	-0.0059055327
109	0xbef44b0d	-0.4771351
110	0xbe3fdd92	-0.18736866
111	0xbd9b03a7	-0.07569056
112	0xbe8a4554	-0.27006018
113	0x3c2ca7ae	0.010538025
114	0x3f08f738	0.53502226
115	0x3d46d828	0.048545986
116	0x3e694930	0.22781825
117	0xbe2a10f2	-0.16608027
118	0xb993d66d	-0.00028197785
119	0x3cfb563c	0.030680768
120	0xbdbb73b5	-0.09152929
121	0x3e8d0ae4	0.2754737
122	0xbc88b2de	-0.016686853
123	0x3eca7a19	0.39546278
124	0xbf052e5c	-0.52023864
125	0xbee05ae5	-0.43819347
126	0x3ea59261	0.3233824
127	0x3e72a5d3	0.2369607
128	0x3f0b3d1e	0.5439013
129	0xbe9fbc5d	-0.31198397
130	0x3eb57efb	0.3544844
131	0xbee5611b	-0.44800648
132	0x3e1ba153	0.15198259
133	0x3f147dd9	0.5800453
134	0xbc717797	-0.014737985
135	0x3f0cfa33	0.55069274
136	0x3f012ec4	0.50461984
137	0x3e53dd67	0.20689927
138	0xbe9328a2	-0.28741938
139	0xbf00facf	-0.50382704
140	0xbc7534b3	-0.014966178
141	0xbef91c8e	-0.48654598
142	0xbe6fd015	-0.23419221
143	0x3e4a8a76	0.19779381
144	0x3d90a03a	0.07061811
145	0x3f208dc0	0.62716293
146	0x3f19700b	0.5993659
147	0xbdd1e7a6	-0.102492616
148	0x3e8d4898	0.27594447
149	0x3e424602	0.18972018
150	0xbef02286	-0.4690134
151	0x3eb6ab7f	0.35677716
152	0x3df9245e	0.121651396
153	0x3e3aae2b	0.18230502
154	0xbe9516f6	-0.2911908
155	0xbca9fdab	-0.020750841
156	0x3e19a549	0.15004458
157	0x3e3e7181	0.18597986
158	0xbc343d23	-0.011000904
159	0xbeb3c5d0	-0.35111856
160	0x3a5ab807	0.0008343462
161	0x3d0394f0	0.03212446
162	0x3e4b1c20	0.19834948
163	0x3eb52f52	0.35387665
164	0xbda25230	-0.07925832
165	0xbc655893	-0.0139981685
166	0x3ca092c7	0.019601239
167	0xbe752936	-0.23941502
168	0xbe131632	-0.14363936
169	0xbea6fabe	-0.32613176
170	0xbeb29c85	-0.3488504
171	0xbe94be8d	-0.2905163
172	0xbe93ee5a	-0.28892785
173	0xbc4439d2	-0.011976676
174	0x3c2c70ca	0.010524938
175	0xbd301d12	-0.042996474
176	0x3dc8f85f	0.09812998
177	0xbda646fd	-0.08119009
178	0xbc5b107c	-0.013370629
179	0x3bc3edab	0.00597926
180	0x3e051809	0.1299745
181	0x3d14905b	0.03627048
182	0xbb938fdc	-0.0045032334
183	0xbbd591dd	-0.0065176324
184	0xbe1d4904	-0.15359885
185	0x3d33cb82	0.043895252
186	0x3d0e13c8	0.034686834
187	0x3d741476	0.059589826
188	0xbdc8f4f8	-0.09812349
189	0x3d265f90	0.04061848
190	0xbaf7ef18	-0.001891586
191	0x3d998419	0.07495899
192	0xbcc62894	-0.024189271
193	0x3d4e9248	0.050432473
194	0xbdc6156f	-0.09672057
195	0xbdc8267a	-0.09772964
196	0xbaa42532	-0.0012523292
197	0x3db87dfc	0.090084046
198	0x3d4c3a05	0.04986002
199	0xb9e74a27	-0.00044115
200	0xbdde46ff	-0.10853385
201	0xbb84a128	-0.0040475316
202	0x3d27d7b9	0.040977214
203	0x3e2bc49b	0.16774218
204	0x3d108b5d	0.035289157
205	0x3c902a24	0.01759822
206	0xbddde9d4	-0.10835615
207	0x3ab81b21	0.0014046171
208	0xbcf5d66a	-0.030009467
209	0x3dba5a16	0.09099214
210	0xbe5f166b	-0.21785896
211	0x3e2ef0f9	0.17084111
212	0x3c2ce955	0.010553678
213	0x3e2c1cae	0.16807815
214	0xbca268c4	-0.019825347
215	0xbd30b8cf	-0.043144997
216	0x37418a21	1.1535857e-05
217	0xbe3e09af	-0.18558381
218	0xbdf50d09	-0.11965377
219	0xbe925d8c	-0.28586996
220	0xbe0f3e74	-0.13988668
221	0x3e3f39e7	0.18674432
222	0xbdbe2465	-0.092842855
223	0xbd224dc3	-0.03962494
224	0xbc69a3d4	-0.014260251
225	0x3e8c195e	0.27363104
226	0x3ddd2cc1	0.10799552
227	0xbc5123df	-0.0127649
228	0xbe26af59	-0.16277827
229	0xbf1c6942	-0.6109811
230	0xbd2fd3dd	-0.042926658
231	0x3e0d2545	0.13783748
232	0x3e855e74	0.26048625
233	0xbd85ea7a	-0.065388635
234	0x3ec210fd	0.37903586
235	0xbcb4f96e	-0.022091594
236	0x3f1a9d8a	0.60396636
237	0xbe015dab	-0.12633388
238	0x3d48cede	0.04902541
239	0xbe052704	-0.13003165
240	0x3eac55d8	0.33659244
241	0x3e4935eb	0.19649474
242	0xbd7717bd	-0.060325373
243	0x3d312304	0.043246284
244	0xbf141638	-0.57846403
245	0x3e10fabf	0.14158152
246	0xbeb2d39e	-0.34927076
247	0x3e91e42d	0.28494397
248	0x3d100f2c	0.03517072
249	0xbf1fd1f2	-0.62429726
250	0x3e114777	0.14187418
251	0xbef5d41c	-0.4801339
252	0x3ef984f6	0.48734254
253	0x3f34e9e0	0.70669365
254	0x3da2f8c8	0.079576075
255	0x3de11900	0.109910965

fc1.bias f4 [128]
0	0xbf2f2912	-0.68422043
1	0xbd8c3b10	-0.06847203
2	0xbe8fbf4e	-0.2807564
3	0xbf92a4d0	-1.1456547
4	0xbf057a91	-0.52140146
5	0xbf6125bf	-0.8794822
6	0xbe202944	-0.15640742
7	0xbfa3f02f	-1.2807673
8	0xbe92e657	-0.2869136
9	0xbe4d3704	-0.20040518
10	0xbea1db53	-0.31612644
11	0xbf254996	-0.6456541
12	0xbe8bf6f0	-0.27336836
13	0xbf3c763c	-0.7361791
14	0xbeea8caf	-0.45810458
15	0xbecf53fe	-0.40493768
16	0xbf0563fe	-0.521057
17	0xbf47e1de	-0.7807902
18	0xbf532f50	-0.8249407
19	0xbf50b068	-0.81519175
20	0xbf289b39	-0.6586185
21	0xbf3535c3	-0.7078516
22	0xbe8bb6cb	-0.27287897
23	0xbec02e32	-0.37535244
24	0xbea4df13	-0.32201442
25	0xbed4f233	-0.41591033
26	0xbeaa766c	-0.33293474
27	0xbe5ad967	-0.21371995
28	0x3e8800c8	0.26563096
29	0xbf142cf6	-0.57881105
30	0xbefd2ad8	-0.4944675
31	0xbf8691ff	-1.0513304
32	0xbf0743e5	-0.52837974
33	0xbf8366ee	-1.0265787
34	0xbf3d7d97	-0.7401976
35	0xbf1666d7	-0.5875067
36	0xbf89cedf	-1.0766257
37	0xbee394dd	-0.4444951
38	0xbc203598	-0.009778403
39	0xbea81623	-0.3282939
40	0xbf14529f	-0.5793857
41	0xbeef11d4	-0.4669329
42	0xbf24a8ce	-0.64320076
43	0xbe85df17	-0.26146767
44	0xbefe7df7	-0.4970548
45	0xbf64bea6	-0.89353406
46	0xbf9449f3	-1.1585068
47	0xbf81f40f	-1.0152606
48	0xbe39f129	-0.18158402
49	0xbee00363	-0.43752584
50	0xbecfdae3	-0.40596685
51	0x3e36dcf9	0.17857732
52	0xbef28ac0	-0.47371483
53	0xbedf15c2	-0.43571287
54	0xbebb802c	-0.36621225
55	0xbe8c3911	-0.27387288
56	0xbf6e109d	-0.929941
57	0xbed4d648	-0.41569734
58	0xbed569c8	-0.41682267
59	0xbecc23fc	-0.39871204
60	0xbf22a45d	-0.6353205
61	0xbe2f1129	-0.1709639
62	0xbea2fc7f	-0.31833264
63	0xbede5797	-0.434262
64	0xbde53038	-0.111908376
65	0xbf82dfe9	-1.0224582
66	0xbf220332	-0.63286126
67	0x3ec3dde5	0.3825523
68	0xbf1e7069	-0.61890274
69	0xbf33d4be	-0.70246494
70	0xbf017dba	-0.5058247
71	0xbf071916	-0.52772653
72	0xbe1bc383	-0.152113
73	0xbe89ebd5	-0.26937738
74	0xbf18284a	-0.59436476
75	0xbe959bca	-0.2922042
76	0xbf545fc9	-0.82958657
77	0xbe983503	-0.29727945
78	0xbf2e6851	-0.68127924
79	0xbf813683	-1.0094761
80	0xbf751c29	-0.95746094
81	0xbeee4a58	-0.46541095
82	0xbe961b97	-0.29317924
83	0xbf72be08	-0.94821215
84	0xbec36fa1	-0.38171104
85	0xbf641363	-0.8909208
86	0xbefe3794	-0.49651778
87	0xbf3b0b7f	-0.73064417
88	0xbef6002e	-0.48047012
89	0xbf340f65	-0.7033599
90	0xbeaa803a	-0.33300954
91	0xbf1a8042	-0.60351956
92	0xbe44a9d6	-0.19205412
93	0xbef25a6c	-0.4733461
94	0xbed1e61d	-0.40995875
95	0xbe3860ab	-0.18005626
96	0xbf15eb27	-0.5856194
97	0xbf4e29da	-0.8053261
98	0xbf033457	-0.5125174
99	0xbe83b181	-0.25721362
100	0xbf50be4d	-0.81540376
101	0x3e8c8043	0.27441606
102	0xbf064115	-0.5244306
103	0xbea0ae5d	-0.3138303
104	0xbe1d0f79	-0.15337934
105	0xbf6fff29	-0.9374872
106	0xbe244b5e	-0.16044375
107	0xbf730298	-0.9492583
108	0xbf65cf8a	-0.89769804
109	0xbe5de4cb	-0.21669309
110	0xbe95ae12	-0.29234368
111	0xbf58a43e	-0.84625614
112	0xbf2a3eeb	-0.66502255
113	0xbf162bef	-0.5866079
114	0xbe2867cb	-0.16445844
115	0xbf133a15	-0.575105
116	0xbeb2f725	-0.3495418
117	0x3e91e17b	0.2849234
118	0xbed18e95	-0.40929094
119	0x3e683514	0.22676498
120	0xbf16cd8d	-0.58907396
121	0xbf502405	-0.8130496
122	0xbf76fbb1	-0.964778
123	0xbf32eea9	-0.69895416
124	0xbf9a41ba	-1.2051308
125	0xbee49f75	-0.44652906
126	0xbf261226	-0.6487144
127	0xbf132195	-0.5747312

fc2.weight f4 [64, 128]
0	0xbd952c44	-0.072838336
1	0x3e1db7d2	0.15402153
2	0xbe087f8e	-0.13329908
3	0x3c21bcc9	0.00987167
4	0x3dde82b9	0.10864777
5	0xbd2b28f1	-0.04178709
6	0xbd07801b	-0.033081155
7	0xbde66ef3	-0.11251631
8	0x3e072a6c	0.13199776
9	0x3e67fdfe	0.22655484
10	0xbd78c74c	-0.06073694
11	0x3e2f6705	0.17129143
12	0x3da318a9	0.07963688
13	0xbc46ecfa	-0.012141461
14	0x3e3f4a60	0.18680716
15	0xbd57277f	-0.0525279
16	0xbdbe1f1c	-0.092832774
17	0x3edaf656	0.42766064
18	0x3e1738fb	0.1476783
19	0x3e517a82	0.2045689
20	0xbc979ddf	-0.018507896
21	0xbd099c7d	-0.033596504
22	0xbb1ec805	-0.0024228108
23	0x3de39782	0.11112882
24	0x3ce537d2	0.027980719
25	0x3cdba440	0.026811719
26	0x3e7bee76	0.24602684
27	0x3d1df190	0.03856045
28	0x3e205a11	0.15659358
29	0xbd8d842a	-0.06909974
30	0xbe2194fa	-0.15779486
31	0xbda87148	-0.08224732
32	0x3dd7a934	0.1053032
33	0xbde78e0d	-0.11306391
34	0xbd01e890	-0.03171593
35	0xbcdadf19	-0.02671771
36	0x3eabca64	0.3355285
37	0x3e6eeed8	0.23333299
38	0x3d7b6f27	0.0613853
39	0x3ce080f9	0.027405249
40	0x3d4db678	0.050222844
41	0xbd711e31	-0.058866683
42	0x3e7f2a6f	0.24918531
43	0xbd9ea420	-0.07746148
44	0x3d858984	0.0652037
45	0x3e8ab9ea	0.27094966
46	0xbcd8bc76	-0.026457053
47	0x3c907175	0.017632226
48	0x3e321f70	0.17394805
49	0xbd7b32df	-0.06132781
50	0x3e4f9797	0.2027267
51	0x3e703452	0.23457459
52	0x3dcb61fb	0.09930798
53	0xbcd79f3e	-0.02632105
54	0xbe20a494	-0.15687782
55	0x3e42e305	0.19031914
56	0xbdc09712	-0.094038144
57	0x3e6faaa1	0.23404934
58	0x3c9ff797	0.01952724
59	0x3dc14dae	0.09438644
60	0x3e01b3a0	0.12666178
61	0x3e46a9ae	0.19400665
62	0xbda0c370	-0.07849777
63	0xbd09719c	-0.033555612
64	0xbdc2583b	-0.09489485
65	0xbc128f64	-0.00894532
66	0xbd39114b	-0.045182507
67	0x3e605a1c	0.21909374
68	0xbd83fe67	-0.06445008
69	0x3c8f004d	0.017456198
70	0xbdb91a7d	-0.09038255
71	0x3dffadac	0.12484297
72	0x3b87f4fa	0.0041490765
73	0x3e7aeb28	0.24503767
74	0x3bf63934	0.0075141434
75	0xbd9a9ea3	-0.07549789
76	0xbde36e13	-0.11104979
77	0x3e879f9c	0.2648896
78	0xbe0c3407	-0.13691722
79	0xbd6cd954	-0.057824448
80	0xbd8d92af	-0.06912743
81	0x3e14c214	0.1452716
82	0x3ca54859	0.0201761
83	0xbcdbb06a	-0.02681752
84	0xbd649b83	-0.05581237
85	0x3d69545e	0.056965224
86	0x3e11b18c	0.14227885
87	0xbdf5d2d1	-0.12003101
88	0x3d429e14	0.047514036
89	0x3de640ff	0.11242866
90	0x3bbe2def	0.0058038156
91	0xbd7d2adb	-0.06180845
92	0x3d0ecad3	0.034861397
93	0x3e30b48b	0.17256372
94	0x3bb074d4	0.0053850207
95	0x3bccbabc	0.0062478464
96	0xbe267fcc	-0.16259688
97	0x3b6335c1	0.003466949
98	0xbc66c7c2	-0.014085712
99	0xbde42263	-0.11139371
100	0x3cffd39b	0.031228831
101	0x3e85aa94	0.26106703
102	0xbdb2b7db	-0.08726474
103	0x3e8d42f3	0.2759014
104	0x3d27aedf	0.040938254
105	0xbd19f7d6	-0.03758987
106	0x3c203287	0.009777672
107	0xbe03fe72	-0.12890032
108	0xbc8ff4b5	-0.01757274
109	0x3dcf233f	0.101141445
110	0x3e1c6aa0	0.15275049
111	0xbc02740f	-0.007962241
112	0x3e16de8d	0.14733334
113	0x3e964c0e	0.293549
114	0x3e9b9be7	0.30392382
115	0x3e362a5a	0.17789593
116	0x3e2e6f8e	0.17034742
117	0x3e97502f	0.29553363
118	0xbdaa22c4	-0.08307412
119	0x3e417c41	0.18895055
120	0x3cc05839	0.023479568
121	0xbb2c0aec	-0.0026251627
122	0x3d1e881e	0.03870403
123	0xbd95a1ca	-0.073062494
124	0x3d8d3197	0.06894224
125	0xbe2e0155	-0.16992696
126	0xbd9bd27a	-0.076085046
127	0x3cd94bf6	0.026525479
128	0x3e042eae	0.12908432
129	0xbdea9c50	-0.114555955
130	0x3c1e42b4	0.009659458
131	0x3eeb9a62	0.46016222
132	0x3db0d2ac	0.086339325
133	0x3e46c099	0.19409408
134	0x3e7a4c8e	0.24443266
135	0x3e8eab20	0.27864933
136	0xbd0bbb12	-0.03411395
137	0xbd163cad	-0.03667896
138	0x3dbcfc23	0.09227779
139	0xbd402d4e	-0.046918206
140	0x3c991de3	0.018691009
141	0x3eb4dd21	0.35324958
142	0x3d48e796	0.049048983
143	0xbcd79442	-0.026315812
144	0x3e4256cc	0.18978423
145	0xbd5ca656	-0.053869568
146	0xbcc0ca44	-0.023533948
147	0xbd567d35	-0.0523655
148	0x3e292bc0	0.16520596
149	0x3e63d5b3	0.22249489
150	0x3e1768c9	0.14786066
151	0xbd6b4c36	-0.057445727
152	0x3c4faf12	0.012676017
153	0x3dcc98e6	0.099901006
154	0xbd38bf5c	-0.04510437
155	0x3e4a50e0	0.19757414
156	0x3cd80bbb	0.026372781
157	0x3dd8181a	0.10551472
158	0x3db16f1e	0.08663772
159	0x3e191c9d	0.14952321
160	0xbaa5b373	-0.0012641981
161	0x3eb73ae0	0.35787106
162	0x3ce67222	0.028130595
163	0xbd2ae7e1	-0.041725043
164	0xbd5ad475	-0.05342527
165	0x3d27c5ff	0.04096031
166	0xbc9c4ad7	-0.019078655
167	0xbc829121	-0.015938343
168	0x3eb294ff	0.348793
169	0x3e92265e	0.28544897
170	0x3d66d268	0.056353003
171	0x3ddd2738	0.10798496
172	0xbd09b453	-0.033619236
173	0xbdb057bf	-0.08610486
174	0x3e23d651	0.15999724
175	0x3e22f5dc	0.159141
176	0xbd159af0	-0.036524713
177	0x3db4e3d5	0.08832518
178	0xbc906b6b	-0.017629346
179	0xbd0d676d	-0.034522463
180	0x3d20db5c	0.039271697
181	0xbb7bbd95	-0.003841256
182	0x3d5d9abb	0.05410264
183	0xbbcc0e04	-0.0062272567
184	0x3e5f670f	0.21816657
185	0xbd8f0d5e	-0.069849715
186	0xbc89c923	-0.016819542
187	0x3d177e98	0.036985964
188	0x3ac8b742	0.0015313404
189	0x3c5eabc2	0.013590755
190	0x3dfd6fdc	0.12374851
191	0x3c8587be	0.016300078
192	0xbd3ac499	-0.045597646
193	0x3d4ccbaf	0.049998935
194	0x3e3201d5	0.17383511
195	0x3d102176	0.03518816
196	0x3e1be2d3	0.15223245
197	0x3e1ee637	0.15517507
198	0x3d05c79a	0.032661058
199	0xbc62ccea	-0.013842801
200	0x3de8643e	0.11347245
201	0xbd747532	-0.05968208
202	0x3eab6330	0.33474112
203	0x3e07f548	0.13277161
204	0x3f0bf771	0.5467444
205	0x3c6dc716	0.014512798
206	0x3c2be273	0.010491001
207	0x3eb72e5b	0.35777554
208	0x3e98ec68	0.29867864
209	0x3ca8060c	0.020510696
210	0x3d9d8ac2	0.076924816
211	0x3ea9ac1e	0.33139127
212	0x3d9532f8	0.07285112
213	0x3e2ba9da	0.16764012
214	0xbb903008	-0.004400257
215	0xbc3102c6	-0.010803884
216	0xbc8e4c3c	-0.017370336
217	0xbd3f771a	-0.046744443
218	0x3e5945b3	0.21217994
219	0x3e15bc9b	0.14622729
220	0xbcd47316	-0.025933784
221	0x3de30c1a	0.110862926
222	0x3d9cf985	0.076647796
223	0x3de15d9f	0.11004185
224	0x3e16dd7d	0.14732929
225	0x3e90578e	0.281918
226	0x3d683a40	0.056696177
227	0x3d893a76	0.06700604
228	0x3dc10d2c	0.094263405
229	0xbd546ba1	-0.051860455
230	0x3dcd5b97	0.10027235
231	0x3da796c2	0.08183052
232	0x3d28bdb6	0.041196547
233	0x3e11ab85	0.14225586
234	0x3b7dbb07	0.0038716213
235	0x3ebc7d07	0.36814138
236	0x3e4085c6	0.1880103
237	0xbc7c0a10	-0.015383258
238	0xbda92b1a	-0.08260174
239	0x3e574f2c	0.21026295
240	0x3c47b5bc	0.012189325
241	0xbd20527f	-0.039141174
242	0xbd0d7ac7	-0.034540918
243	0x3d02757a	0.031850316
244	0xbd1723ac	-0.036899254
245	0x3db7a35b	0.089667045
246	0x3e36ff60	0.17870855
247	0x3c61973c	0.013768967
248	0xbc611d98	-0.013739966
249	0x3e17a869	0.14810337
250	0x3e1762c1	0.14783765
251	0x3d007eb7	0.031370845
252	0x3eb8cda6	0.36094397
253	0xbce1ffe2	-0.027587835
254	0x3d4fc36b	0.050723474
255	0xbce37e5d	-0.027770216

fc2.bias f4 [64]
0	0x3ce9c308	0.028535381
1	0x3d9253d4	0.07144895
2	0x3e1135d3	0.14180689
3	0xbc7048d0	-0.014665797
4	0xbdc2d864	-0.095139295
5	0xbd050b54	-0.032481506
6	0xbcffae82	-0.031211141
7	0xbd112120	-0.03543198
8	0xbd3a1ab1	-0.04543561
9	0x3dbdc60c	0.0926629
10	0x3ba22a3d	0.004948883
11	0xbdb063df	-0.08612799
12	0x3e506abf	0.2035322
13	0xbd84ae6b	-0.0647858
14	0xbd11b61a	-0.035574056
15	0xbdfdc785	-0.12391571
16	0xb9298d7b	-0.00016169802
17	0x3bf90bfd	0.007600306
18	0xbdae929d	-0.08524058
19	0xbd717dd5	-0.058957893
20	0xbdae2b8d	-0.085044004
21	0xbd348716	-0.04407414
22	0x3c814656	0.01578061
23	0xbd33d8cc	-0.043907925
24	0xbd2590c3	-0.04042126
25	0xbdac4780	-0.08412075
26	0x3d2d5510	0.04231745
27	0xbd058160	-0.032594085
28	0xbc03707e	-0.008022426
29	0xbb818006	-0.003952029
30	0xbcc47658	-0.023982212
31	0x3e19a4b4	0.15004236
32	0xbd7d4bf6	-0.06184002
33	0x3c00a4c9	0.007851788
34	0xbd96ffab	-0.073729835
35	0x3d0c8444	0.034305826
36	0x3c0ba0fe	0.00852227
37	0x3e5c7ab8	0.21531188
38	0xbbf79bda	-0.0075564208
39	0x3d167020	0.036728024
40	0xbbd4783c	-0.0064840596
41	0x3e187804	0.14889532
42	0xbd1abe9b	-0.03777943
43	0xbd27de51	-0.0409835
44	0xbd26122a	-0.040544666
45	0xbd1fe8ab	-0.03904025
46	0xbe50a8bc	-0.20376867
47	0xbd2b1103	-0.04176427
48	0xbc8345e3	-0.016024536
49	0x3d860c2c	0.0654529
50	0x3c8d2e43	0.017233973
51	0xbd2b2c33	-0.0417902
52	0x3d2c483f	0.042061087
53	0x3c82af90	0.015952855
54	0x3e561611	0.20906855
55	0x3e388af4	0.18021756
56	0x3db56a6e	0.088581905
57	0xbdba4340	-0.09094858
58	0x3dbdeb43	0.09273388
59	0x3c32e427	0.010918654
60	0xbda3de42	-0.08001377
61	0xbcdb5178	-0.026772246
62	0x3e079290	0.13239503
63	0x3a76682f	0.000939968

fc3.weight f4 [2, 64]
0	0x3f072972	0.52797616
1	0xbdbaa116	-0.09112756
2	0xbd2b3ec7	-0.041807916
3	0x3c09e321	0.008415968
4	0x3d7268cf	0.059181985
5	0x3e2f247c	0.17103761
6	0x3ecb58c2	0.39716154
7	0x3cdb340e	0.02675822
8	0x3cbb4026	0.022857737
9	0x3b0f0d09	0.0021827838
10	0x3f39c344	0.72563577
11	0x3cd28bc6	0.025701415
12	0xbc62710d	-0.013820899
13	0x3c254441	0.010087074
14	0x3f09f73d	0.5389288
15	0x3c4a614f	0.012352302
16	0x3b6d69ce	0.0036226395
17	0xbbb5d6f9	-0.0055493084
18	0x3cef916f	0.029244153
19	0x3eaadc71	0.33371308
20	0xbca580d4	-0.020203032
21	0x3d264d51	0.04060108
22	0x3f0867a6	0.53283155
23	0x3b855a81	0.004069627
24	0x3d224e5d	0.039625514
25	0x3d3f1ba2	0.046657212
26	0x3f1e1f97	0.6176695
27	0x3b40610c	0.002935472
28	0x3e229e01	0.15880586
29	0x3f30bd9a	0.6903931
30	0x3e9bf1d2	0.30457932
31	0xbe18f277	-0.14936243
32	0x3c4c082c	0.01245312
33	0x3ed3ab5c	0.41341674
34	0x3cf3c7e9	0.02975841
35	0x3f2179a6	0.63076246
36	0x3f230269	0.6367555
37	0xbde13e73	-0.10998239
38	0x3f59b138	0.8503604
39	0x3edd896a	0.432689
40	0x3f33dbd8	0.7025733
41	0xbd89fdf5	-0.067378916
42	0xbb494246	-0.0030709668
43	0x3c6a2350	0.014290646
44	0x3f1586bf	0.5840873
45	0xbcd6fb37	-0.026242835
46	0x3d35d920	0.04439652
47	0x3ccfe77e	0.025378939
48	0x3f46d257	0.77664703
49	0x3f125a12	0.57168686
50	0x3f1387db	0.57629174
51	0x3f07a133	0.52980345
52	0xbb8ddeed	-0.0043295533
53	0x3f3c68af	0.73597234
54	0xbd91b6a3	-0.07114913
55	0xbd997e6a	-0.07494815
56	0x3f606adb	0.8766305
57	0x3d04e480	0.032444477
58	0xbdc5910d	-0.09646807
59	0x3eb2909d	0.34875956
60	0xbb0c2768	-0.0021385793
61	0x3ee1839e	0.44045728
62	0x3c6181cf	0.013763859
63	0x3f21814e	0.6308793
64	0xbf15361d	-0.58285695
65	0x3dba9a3e	0.091114506
66	0x3d2b36cd	0.04180031
67	0xbc0a6f9a	-0.008449459
68	0xbd72a47e	-0.059238903
69	0xbe2ed5b6	-0.17073712
70	0xbecc28ff	-0.39875028
71	0xbca7e8f7	-0.020496828
72	0xbcbb7e54	-0.022887386
73	0xbb1192dc	-0.002221278
74	0xbf36ecde	-0.7145518
75	0xbcd2af93	-0.025718486
76	0x3c6239d4	0.013807733
77	0xbc25a0d2	-0.010109143
78	0xbf0a0ebb	-0.53928727
79	0xbd282879	-0.041054223
80	0xbb6dd013	-0.0036287352
81	0x3ba5da08	0.0050613917
82	0xbcf5d1b7	-0.030007226
83	0xbeab717c	-0.3348502
84	0x3c9edf69	0.01939364
85	0xbd265e4a	-0.040617265
86	0xbefb1e49	-0.49046543
87	0xbbd130eb	-0.0063840053
88	0xbd22a85f	-0.039711352
89	0xbd3f5347	-0.04671028
90	0xbf1ee83f	-0.6207313
91	0xbb417a6a	-0.0029522427
92	0xbe21d1cb	-0.15802686
93	0xbf3273f8	-0.69708204
94	0xbe9c5039	-0.30529955
95	0x3e18e5ad	0.14931364
96	0xbc4c8a9b	-0.012484218
97	0xbed3801e	-0.41308683
98	0xbcf3ebb0	-0.02977547
99	0xbf22e0af	-0.6362409
100	0xbf1c3275	-0.6101449
101	0x3dd7f3b0	0.105445266
102	0xbf55c448	-0.83502626
103	0xbedec5b5	-0.43510213
104	0xbf2b9acf	-0.67033094
105	0x3d89fb7e	0.067374215
106	0x3b484fdd	0.003056518
107	0xbc6b2dac	-0.014354151
108	0xbf167ad5	-0.58781177
109	0x3cd65082	0.026161436
110	0xbd3629f4	-0.044473603
111	0xbcd0109a	-0.025398541
112	0xbf4969fa	-0.7867733
113	0xbf10a5cb	-0.5650298
114	0xbf121d22	-0.57075703
115	0xbf0b5655	-0.5442861
116	0x3b8d4842	0.0043115923
117	0xbf3f5e21	-0.74753004
118	0x3d91a8b2	0.07112254
119	0x3d996ab0	0.07491052
120	0xbf5a5ccf	-0.85297865
121	0xbd06c373	-0.03290124
122	0x3dc59076	0.09646694
123	0xbeb02fcf	-0.34411475
124	0x3b08fcbc	0.0020902595
125	0xbeddb0cc	-0.43298948
126	0xbc63b973	-0.013899195
127	0xbf1e1933	-0.617572

fc3.bias f4 [2]
0	0xc030343a	-2.7531877
1	0x402d2de3	2.7059257
